model.pt (torch, 94674 bytes, 12 tensors)

weight f8 [60, 1]
000000 db e5 52 0d 30 a2 de bf b9 ab a8 20 06 6a df bf
       -0.47864915181307105 -0.49084618748991776
000010 07 7d 4b 86 bf ec 18 40 f6 2b 56 3c 9a 56 d7 bf
       6.231199358327337 -0.364660796091527
000020 c0 1c a8 fe e5 40 e1 3f 1b 0f 16 05 f6 be f8 bf
       0.5391721700442744 -1.5466213415792882
000030 66 29 85 d9 b9 39 f6 3f b8 db 41 da d8 03 ec 3f
       1.3890932556992879 0.8754696142994964
000040 4a 1c 47 db f5 88 20 40 a4 e2 9a 0f 15 2d 16 c0
       8.267500736647111 -5.544025653675508
000050 0f bb 1a 66 cf 58 01 40 23 f8 bd 7f 05 fe 1c c0
       2.1683643319041788 -7.248067851991467
000060 d9 39 09 24 70 85 db bf 0f ec 07 92 1e 06 dc bf
       -0.43001941222328594 -0.4378734994967894
000070 1c c1 58 4a ad 2d 1b c0 1a 47 a0 95 0d 97 da bf
       -6.794606362979064 -0.41546954738542896
000080 1e 4b dd 78 32 b8 10 40 55 3f 1e 91 cc ac dc bf
       4.179880035883597 -0.4480468194169494
000090 ad 92 5a c5 55 0f 12 40 b6 a3 e0 70 ca c3 00 c0
       4.514975627568373 -2.095600969176725
0000a0 a9 c0 8f 45 89 4c df bf 94 73 7c a9 9f 1c fc 3f
       -0.4890464000045634 1.7569882031013764
0000b0 d0 0d 73 18 2a 28 09 40 bc c4 51 1c 31 4c dd bf
       3.1446115408050233 -0.4577753807598801
0000c0 9a 90 60 0c 71 cf 17 40 8a 33 7a 00 67 16 e0 bf
       5.952579682725764 -0.5027346619914266
0000d0 56 71 7d cd 22 0a 23 40 ab 0c c0 74 42 f7 d8 bf
       9.519796773493606 -0.3900915279520613
0000e0 55 24 99 46 ad 53 db 3f 67 ea 6d 77 e0 ed d8 bf
       0.42698223013264186 -0.3895188490202259
0000f0 61 3c 8c 65 e1 15 1a 40 aa 01 00 ec 85 dc d9 bf
       6.521367632564847 -0.40408466383817176
000100 72 61 90 58 37 39 e0 bf ec 8f 4c 1c 41 cd fd bf
       -0.5069843988194818 -1.8626109223778213
000110 34 de 6c 88 b4 b7 dd bf 62 8e f9 22 c3 f2 16 40
       -0.46433747599391784 5.737072512132359
000120 73 14 90 ed 51 e6 fc bf 48 09 91 7b 44 ca 1a 40
       -1.8062304763600678 6.6975268656991105
000130 f5 c3 7b eb f9 f7 02 40 e0 c7 20 db 18 dc 0c 40
       2.3710821530480595 3.607469283998384
000140 f1 8e 97 f1 fa 4b 22 40 c8 17 3f af bf 09 08 40
       9.148398923636224 3.0047601405267166
000150 da 23 05 60 cf f7 20 40 e3 6e 2a ef 73 28 f6 3f
       8.484004021289298 1.3848761885082517
000160 29 cc f9 62 f1 bb 07 c0 01 e5 72 f7 0c 06 21 40
       -2.9667690021974704 8.51181767728349
000170 f7 d8 ad a6 42 ab dc bf 3e 16 7d 30 00 2a d8 bf
       -0.4479529025769717 -0.377563521721047
000180 de 2d b7 2f 8b 80 21 40 10 0b e7 d2 dd 41 14 c0
       8.751061907873858 -5.064322753288039
000190 a3 c2 3b f6 68 69 dc bf 6b 82 c3 32 95 b1 dc bf
       -0.4439337162612366 -0.4483387943019241
0001a0 9c 52 79 fe 0c eb 15 c0 5f 66 d5 f0 d8 c3 11 c0
       -5.479541755824041 -4.44125725080957
0001b0 ed 2d 75 55 5b 97 1c 40 bd 57 1b 80 8a b7 0b 40
       7.147809348370612 3.4646196373314226
0001c0 7e 52 9e 12 0f ff dd bf 4f 2d 5f a4 d7 e9 0b c0
       -0.4686925584622158 -3.4891808358712875
0001d0 5c 04 91 0a c5 e8 17 40 0d 43 ca b1 08 70 d7 bf
       5.977314152814042 -0.3662130104285531

bias f8 [60]
000000 3b 69 cc 69 86 5f fb 3f 8b c3 86 b8 de 2c 06 40
       1.7108215458634521 2.771909181225458
000010 2d 04 ba c6 48 f1 c8 3f 0f 8a b2 6e cb d1 f1 3f
       0.19486341193626924 1.113719398891252
000020 fc 30 1f 3e 0a 90 f5 bf 7d a8 ec 49 95 df 2a 40
       -1.3476660181650564 13.436685857905326
000030 a4 28 0b 89 c5 9f ec bf 9e 97 15 a2 e5 10 f2 bf
       -0.8945033718712421 -1.129125245229694
000040 13 40 bb 66 a2 c1 b2 3f 41 1b f3 dc 74 e9 bd bf
       0.07326712616054491 -0.11684351343420209
000050 07 09 d8 1c 3d 43 ee bf 8d 50 72 03 70 20 d6 bf
       -0.945707851730078 -0.3457298310907014
000060 e2 5f 44 f0 dd b0 f3 3f 10 b1 6a 76 cb 13 f1 3f
       1.230680407088578 1.0673327088980535
000070 24 f7 d2 76 d1 d7 dc bf f5 8d 3c 2f d7 50 df 3f
       -0.45067249874033366 0.4893091164869639
000080 82 c0 fc 16 41 47 db bf 60 a9 a3 f8 c5 49 ef 3f
       -0.4262240147099946 0.977755532859458
000090 f1 89 d7 2e ee c5 c1 bf 50 bf 1e 2d a4 70 9b bf
       -0.13885285651402016 -0.026796880010521662
0000a0 b7 cd 88 79 31 2b fd 3f a2 67 bc e2 6b 20 e8 bf
       1.823045229667384 -0.7539576939045569
0000b0 40 af a5 1d 50 ae dc bf 2f ce 35 2f 79 2f f0 3f
       -0.44813921828493974 1.0115901798389009
0000c0 f0 57 5c 50 51 b1 c0 3f f1 ac cb 14 e6 68 04 40
       0.13041130470145346 2.5512200951248976
0000d0 39 30 a2 20 ae a9 c5 3f 09 15 d5 88 a2 91 d5 bf
       0.16924072831568696 -0.337013848901123
0000e0 5a 4c 0e 48 de 7d f3 bf 71 cc 57 6a ff f7 e7 3f
       -1.2182295622522106 0.7490231587420465
0000f0 23 63 9f d3 8e 82 c2 3f a5 e5 4d c7 c3 91 ec 3f
       0.14460931141982156 0.8927935497915099
000100 7d 50 be 37 cd b7 05 40 2e e3 1c 22 29 cd d3 3f
       2.7147468905405376 0.3093970139630525
000110 d8 10 d1 bf a1 b7 fc 3f 06 77 2f 2d be 61 94 bf
       1.7948319905126962 -0.019904109485529474
000120 52 32 9b 66 9e 0e a5 3f 70 fd fe 56 a6 6d cb 3f
       0.04112715723531281 0.21428374526838523
000130 fe a0 52 a1 13 58 e0 bf 3e c0 c4 50 e5 64 da bf
       -0.5107515478930791 -0.412408188701196
000140 8e 5f e8 93 c9 4e d0 3f be ef 9a 99 c9 02 e5 bf
       0.2548088020716869 -0.656590271005818
000150 92 67 70 75 0d cb d3 3f 4a 5e b2 67 00 fa eb bf
       0.309268345533945 -0.8742677712752507
000160 ee 06 3c e0 c0 e7 bb bf 84 75 8b 2b b8 21 ca 3f
       -0.10900502657389285 0.20415403486451222
000170 1f fc f3 df e1 45 f3 3f df e6 cf 00 ca a3 df bf
       1.2045611141363748 -0.494371891778071
000180 bb ba 4d 62 a3 b1 c0 3f 57 e9 b2 4e d7 ee e0 bf
       0.13042108821851692 -0.5291554009520877
000190 74 f0 a3 47 2c 8c 00 40 2c 34 32 64 5b 01 ed 3f
       2.068443832102327 0.9064156491236921
0001a0 83 15 1b e8 19 e2 c2 bf 62 4e 1a 13 5f f0 e3 bf
       -0.147525060971173 -0.6230922101116898
0001b0 b0 de 75 bd b4 87 b7 bf 09 4c 50 37 97 03 e4 bf
       -0.09191445947169075 -0.6254383163781095
0001c0 18 e3 12 13 7b 58 01 40 3e 08 cd 77 ca d2 e0 bf
       2.168203495992554 -0.5257313098775354
0001d0 35 31 a6 b2 41 cb cc bf f7 da 5f 03 3f 86 be bf
       -0.22495290015320682 -0.1192359336126677

weight f8 [60, 60]
000000 63 b2 f3 f0 aa 1a 0d c0 d7 7e 57 12 5e 42 0d c0
       -3.6380213569994324 -3.6574059899283884
000010 34 78 cd b8 1e f2 83 bf 77 b5 8a 29 8b f9 07 c0
       -0.00973915101502252 -2.996847462220724
000020 5f f5 bd ba 3e fb c0 3f 56 d7 a2 78 4a be 20 c0
       0.13266739004385905 -8.371661920431205
000030 0d b1 66 ac ed 5a c0 3f 4b ce f1 05 62 95 ca 3f
       0.1277749149134099 0.20768380441914966
000040 7d 70 5b e4 92 62 c5 3f bb c8 ca db 90 22 bd bf
       0.16707073354962523 -0.11380868307131468
000050 43 b2 41 ad 66 82 b3 3f 63 de e1 ca 5e ca b2 bf
       0.07620851259134391 -0.07340042546445029
000060 20 6d b7 59 03 c4 0c c0 54 c2 6b da fa f8 0c c0
       -3.5957095154859786 -3.6215722145209757
000070 60 cb 81 6a 65 c9 cf bf aa 1f 1e 9f cd b8 0c c0
       -0.24833362293756078 -3.590235941988756
000080 4e 1e e7 26 c4 e1 b1 3f 35 4c 07 31 1f 04 0c c0
       0.06985116910720388 -3.502012618098457
000090 6c 52 96 92 5c ac cc 3f d3 6e c6 da 6b d7 bf bf
       0.22401005895212067 -0.12438081828298246
0000a0 3f 42 18 25 f3 f5 0c c0 1a 49 8a 94 ae d5 cf 3f
       -3.6200926683452788 0.2487085557264173
0000b0 c6 bd 7f 94 cd 28 c7 3f cc 53 bb 3c b3 33 0d c0
       0.1809327101795885 -3.650244211642052
0000c0 d2 2f e0 91 aa b6 c6 3f c8 ed 83 85 7d af 0c c0
       0.1774495327266537 -3.5856886320959553
0000d0 e0 89 63 79 51 d8 b3 3f f0 7b 21 92 ef 0b 0c c0
       0.0775195046767645 -3.505828038832526
0000e0 42 0c 82 4a 1c 40 d1 3f ea 57 80 fa cc 06 0a c0
       0.2695379951111968 -3.253320653001528
0000f0 35 1d ee b6 e7 f5 c9 3f 72 2d 0e 01 11 4f 0c c0
       0.20281692916999253 -3.5386066515399586
000100 55 86 99 94 2b 96 0c c0 06 59 5d 7b 9d 7c d4 bf
       -3.573325310645297 -0.32010590598419275
000110 a3 e4 2f a8 8a 4c 0c c0 bb ec 4d 9e 36 7d 95 3f
       -3.5373738422027414 0.02098546353543605
000120 59 80 2b 28 5e f1 d9 bf bb 29 94 1d f6 a2 b2 3f
       -0.40535692141384555 0.07279909345758188
000130 e8 b0 37 4c 61 0b 81 3f 2c 75 18 c4 42 66 ca 3f
       0.008322487009501292 0.20624575209596097
000140 62 6e b1 d5 c5 1c bb 3f 23 8d e0 0b 0d 77 cf 3f
       0.10590778796307057 0.24582064704836978
000150 d2 9c d4 c0 ae 8f b8 3f da b6 c4 15 a4 4f cc 3f
       0.09594242294098201 0.22118044913206952
000160 26 17 d1 05 d3 2d cc bf 25 66 3f 01 11 05 c9 3f
       -0.22014844688435992 0.19546711502953076
000170 e6 30 ad 43 9c ed 0c c0 63 0f e0 b4 90 59 0c c0
       -3.6160207068661405 -3.5437330370786397
000180 b0 23 26 2f 7d 22 bd 3f 55 e7 fa b1 d2 92 be bf
       0.11380751038644976 -0.11942784161774729
000190 cf c6 f7 35 af 73 0c c0 8b ff d6 bb 30 18 0d c0
       -3.556486531852762 -3.636811702250218
0001a0 c4 4d a1 e7 eb dc d1 bf 11 ba ec 62 97 88 cb bf
       -0.2791089784634233 -0.2151059372931319
0001b0 ca f8 9c ad 9e 83 bb 3f b6 58 94 1f f1 48 bf 3f
       0.10747710932352841 0.1222067548845612
0001c0 71 04 15 ec 2b f3 0b c0 3e b2 0c 75 02 61 ca bf
       -3.493736118689917 -0.20608549800216908
0001d0 2a f8 2b 16 a4 01 cf 3f 25 bd 82 3b d3 38 09 c0
       0.2422375782261395 -3.15274664395078
0001e0 97 b2 8c d6 6a 05 ca 3f a5 99 65 6b 35 aa d4 3f
       0.20329032398276034 0.32288871276832715
0001f0 c7 76 3a f7 92 00 d1 bf 5e da 84 8b 03 9c d0 3f
       -0.26566003936191546 0.25952232956789156
000200 e3 a5 10 81 9c 61 d5 bf 71 59 80 8b ff e6 aa 3f
       -0.334082723655767 0.05254362657449264
000210 db 38 cc 41 83 40 d8 bf e7 8a 5d 9c 47 4b d1 bf
       -0.3789375441127853 -0.2702197100644938
000220 74 37 cd 91 70 f6 d3 bf 3e eb 10 be 1d 50 d6 3f
       -0.3119164871067064 0.3486399036516338
000230 0a 91 a8 35 e1 05 d8 bf 1b d0 76 db b7 20 e4 3f
       -0.3753588699348859 0.6289939199837166
000240 7d 26 aa ad fa 02 d1 3f 0a 68 05 e1 f2 66 dc 3f
       0.26580683669508415 0.44378349280089024
000250 1f bd f9 66 42 23 d7 3f 8e 97 ad c6 3d 15 c7 3f
       0.3615270619984176 0.1803357334239845
000260 d8 64 9f a0 66 31 c6 bf 1a f3 4b ae 56 86 cf 3f
       -0.173382595471401 0.2462871886308669
000270 2e 98 96 cf b9 66 cf bf a1 37 71 60 1b 1e d1 3f
       -0.24532244335313308 0.26746258180798504
000280 03 d9 67 1a 51 da d0 3f 5e a1 10 ea 43 6c c7 bf
       0.2633250005595899 -0.18299149445489155
000290 67 fd fa 99 b3 f9 d6 bf bf 51 92 c6 b7 fb d7 3f
       -0.35899057423735886 0.37473863975290195
0002a0 ab 4e fe 76 d1 6b c2 bf 70 86 82 05 31 49 af 3f
       -0.1439153510115053 0.06110528175601082
0002b0 40 bd b6 23 40 78 da bf a5 22 4f ca 43 0c ad bf
       -0.41358951080015416 -0.056734198041856566
0002c0 e4 7b 9a e1 eb 9b dc bf 55 5f 98 b1 c8 70 d6 3f
       -0.4470166876944275 0.35063378661424355
0002d0 62 f6 c4 43 78 f6 cc bf 24 bf 62 12 e4 dc d3 3f
       -0.22627166089107492 0.3103571109340797
0002e0 28 5d 44 d2 65 e9 b9 3f 03 64 9e 3e 79 cb cd 3f
       0.10121761687729658 0.2327720218425214
0002f0 df ea 89 86 78 3e dd 3f a4 bc 27 d6 7d f6 d4 bf
       0.456937915215958 -0.3275446502074806
000300 26 d4 a8 05 7a 86 db 3f b8 e2 e2 53 ed ae d8 bf
       0.4300828032749585 -0.38567670051592584
000310 25 86 30 33 e3 ec c8 bf 91 0d d0 2b 64 28 c9 bf
       -0.19472923278321833 -0.19654514445583662
000320 ad 36 93 1d 08 69 d1 bf e6 27 c5 d7 c7 72 d0 bf
       -0.27203562629879735 -0.25700565406134357
000330 7e bc 27 fe e7 06 d1 bf a7 25 a7 33 f2 a9 cb bf
       -0.2660465223297662 -0.2161238434039607
000340 6a 01 8b 8b 3f 87 d9 3f 1f 60 e7 05 9b e2 c8 bf
       0.3988798964237704 -0.19441545284530634
000350 4c 4a 7a 06 a7 34 d6 3f 2d 6e 97 a3 00 ab cf 3f
       0.34696365006053465 0.24740608203761508
000360 f1 51 bd 1b 60 0a d7 bf 05 a8 e9 6d 10 53 dd 3f
       -0.3600082655805457 0.458194835030213
000370 91 8b 16 e6 11 09 df 3f ea 99 d8 d5 d3 ac d4 3f
       0.4849285838083058 0.3230485523548895
000380 bc 6c 04 d9 b0 4b e0 3f e4 55 1e ea a8 ad d2 3f
       0.5092396010035354 0.29184935439238147
000390 a6 00 9a 07 23 3d cf bf 3c 16 96 66 64 86 d1 bf
       -0.24405324813051726 -0.27382764833632556
0003a0 a4 b9 11 8f 53 8b d4 3f 41 de b6 c5 38 0e cf 3f
       0.32100380870442735 0.24262151388187372
0003b0 5a 16 95 2c 53 5e cd bf d9 da af 26 12 04 d7 3f
       -0.2294410674750676 0.35962346818943797
0003c0 40 e3 dd d9 8e a3 cb 3f a2 1d 4e be 43 d1 d2 3f
       0.21592889440560192 0.29402249893652244
0003d0 b2 46 56 fd 3f 92 d6 bf 81 bb 0a ca 3c f4 d4 3f
       -0.3526763891214656 0.32740707140595054
0003e0 54 a1 75 29 c8 4c d3 bf 19 4a 98 a8 5e 08 be 3f
       -0.301561394202982 0.11731521240316346
0003f0 5a 3a b4 23 9d fe d7 bf 06 a1 64 cb fa 61 dc bf
       -0.37491539465637447 -0.4434802042255942
000400 af 96 c9 67 74 ed d8 bf df 76 11 8e fe 1b cf 3f
       -0.38949308524602605 0.24304181992459115
000410 b4 20 08 5a 75 c3 ce bf 0e 9e a2 a7 26 c8 d4 3f
       -0.24033991714555258 0.3247162472784745
000420 76 c3 7b 74 43 a1 d9 3f 60 04 04 8d 51 ec dc 3f
       0.4004677426847175 0.45192374011100434
000430 52 0a 30 ad fd 2d d6 3f b1 09 a7 71 4b 96 cc 3f
       0.34655706322533775 0.22333663033903187
000440 ab 8c 2e c1 62 0c ca bf 5e 5b e7 5a d8 a5 d4 3f
       -0.20350298340517745 0.32262238385503916
000450 3b cc cb e5 ce 52 c8 bf 21 bf 67 68 34 20 d5 3f
       -0.19002710552703825 0.33009062000108896
000460 b4 c3 83 07 eb 43 d2 3f 66 c9 f3 6b 9f 04 d5 bf
       0.2853953908334532 -0.3284071497174835
000470 73 06 2b ec ed 87 c6 bf aa aa 70 38 12 65 cc 3f
       -0.1760232356228247 0.22183444743980846
000480 05 c8 a3 4c 73 c6 c6 bf 2d 5b 37 13 98 a4 c0 3f
       -0.17793122522522267 0.13002301157276844
000490 e8 ab 04 37 50 e1 c8 bf 9c cb aa c0 3b 1b b8 bf
       -0.1943760174411573 -0.0941655488375503
0004a0 78 58 07 9f 90 a8 d5 bf 59 4a 31 10 7a d1 d4 3f
       -0.33841338663240306 0.3252854498033791
0004b0 16 e2 87 c0 ab 45 c0 bf 4f af df 04 49 c8 df 3f
       -0.12712618733327535 0.49659944034532527
0004c0 f8 35 8e 35 14 c8 bd 3f 6f 31 f5 39 b9 f4 db 3f
       0.1163342123747596 0.43681173953952784
0004d0 fa 48 2f 9e df a1 d7 3f 46 64 37 1d eb f3 c3 bf
       0.3692549748203785 -0.15588129927235367
0004e0 86 45 4d 1c 0a 56 d4 3f e4 8b af 36 1f b8 d2 bf
       0.31775143398143546 -0.29248791065600543
0004f0 3a 00 dd c7 ab 88 cd bf 57 3b 24 40 d8 a2 ca bf
       -0.23073336848210763 -0.2080946267310206
000500 ec e4 f5 99 63 94 ca bf 28 df ef 83 5d a7 d7 bf
       -0.20765347497562148 -0.3695901668975119
000510 50 83 a2 cc f9 17 d9 bf dd a0 e1 a6 e5 68 cc bf
       -0.39208836540097014 -0.22195120476249644
000520 bc 50 00 66 3a 6d da 3f d1 e9 97 e4 ec 1b d9 bf
       0.4129167553048878 -0.3923294288976225
000530 06 46 86 d5 d9 15 db 3f b4 6e 65 f2 35 c2 c5 3f
       0.4232086739731077 0.16998934112313224
000540 6c f5 f1 1c e5 38 d5 bf ba 41 1f 2b b9 3e c9 3f
       -0.3315975935618869 0.19722666364260794
000550 52 0e 8d 94 27 4c d5 3f b7 8a 44 93 a0 37 d7 3f
       0.3327731085484845 0.36277021772017853
000560 45 64 e9 0c 6c 78 cd 3f 37 92 e5 e4 5c 3e cc 3f
       0.23023748999074392 0.22065316368674967
000570 99 61 1f ec 91 35 d1 bf 7c b3 7b 6e ed 6b d5 bf
       -0.2688946538815116 -0.3347123698175023
000580 77 29 83 b2 4b 5a d7 3f be 7a 2f 89 13 6c d6 3f
       0.3648862117085154 0.3503464545919249
000590 41 dc 19 53 ea 55 cd bf 35 0d 97 7e 7e 66 d7 3f
       -0.22918442781130646 0.3656307445746337
0005a0 1c 69 bd 0c f9 c0 d2 bf 4a 52 19 a3 a0 b6 d6 bf
       -0.2930281280911389 -0.3548966973078548
0005b0 18 8f f4 07 2a 42 d5 3f 09 74 37 3f fe 66 dc bf
       0.3321633413017806 -0.4437862031316518
0005c0 59 51 5e 26 06 69 c6 3f 5b d9 d9 4e 14 a0 c3 bf
       0.17508007882555424 -0.15332273340363653
0005d0 12 97 1a 98 31 71 d0 3f 2e 71 23 d4 e1 07 cd 3f
       0.2569087968243916 0.22680304392168565
0005e0 2b 54 2b 7e 5d 71 d7 3f 8b 7c 71 b1 ae c8 e1 bf
       0.36629426308838003 -0.5557473626794417
0005f0 50 1e 6b 5b 9c 65 d7 3f 0a a5 33 1e b7 91 e5 bf
       0.36557682921963863 -0.6740375127675702
000600 8f 06 21 c2 16 fa d9 bf 62 c1 03 e8 3c 77 e0 bf
       -0.4058892150679662 -0.514555409577991
000610 c8 10 31 d3 b7 f2 e1 bf 3a 04 2f f6 24 fe d5 bf
       -0.5608786702000765 -0.3436367420327461
000620 f3 c8 a1 27 4e e7 cf 3f bf 7d 10 5c b2 ef e0 bf
       0.2492463773265353 -0.5292598531850031
000630 63 4a 04 8b 53 f0 d3 3f 1b 17 79 c1 89 94 e2 bf
       0.3115433557115123 -0.5806320933122352
000640 a0 25 6a 6a 24 dc de bf 9b dc 08 18 b7 30 d3 3f
       -0.482186416550201 0.2998483404839562
000650 2b f9 58 fa 58 c5 d0 3f 05 d2 3e d9 cd b1 da bf
       0.2620451397705376 -0.41710230079050375
000660 6d 1a 79 e5 9b 1c cc 3f e1 02 69 50 09 39 d7 bf
       0.21962307648410065 -0.36285622456129657
000670 94 80 06 ea 93 34 da 3f c0 d5 48 d2 6d 7b 8d 3f
       0.40945909360926547 0.014395578365205774
000680 a4 8d 2a 8e cb 97 be 3f 6d c7 28 75 de 3c e0 bf
       0.11950370999198029 -0.5074302948253099
000690 12 1b 5c 78 c8 0c cf 3f 63 87 d1 8e d0 51 da bf
       0.242577608842304 -0.41124357173077025
0006a0 41 a3 b2 0c 54 22 d5 bf 8a 3f bd d1 57 49 d8 bf
       -0.33022023429889563 -0.37947650415753087
0006b0 36 a3 3a 03 39 a8 e1 bf 61 3d 98 fc 6c 98 d4 3f
       -0.5517849982325973 0.3218033282036768
0006c0 1c d2 bf 81 23 46 df bf cc 5e d5 dd b5 bf d6 3f
       -0.48865592642622047 0.355451075205093
0006d0 20 68 f9 bb d6 cc c7 3f c0 a2 34 73 bf c2 c8 3f
       0.1859386842577928 0.1934432327773461
0006e0 81 81 fb 8b 79 14 d1 3f 02 4f f5 6c 7c fa d5 3f
       0.2668746821418822 0.34341345444157423
0006f0 47 65 b5 0e e2 d6 cd 3f f9 9e cb 52 66 e3 cc 3f
       0.2331202098674032 0.22568968813651916
000700 c7 74 63 d1 6f 2f db bf 71 68 7e 8c 12 a0 ce 3f
       -0.4247703118142678 0.2392600236897269
000710 4b 4f 6d 86 e7 3d d7 bf 4c f7 ed 68 db 0f d0 bf
       -0.36315334441791397 -0.2509678387358363
000720 b9 5b f5 29 ba 12 de 3f db b5 c3 cd 55 02 e5 bf
       0.4698930177450467 -0.6565350550496832
000730 cc 9c eb f2 17 d7 e1 bf 81 e2 b1 b8 38 72 d5 bf
       -0.5575065369165713 -0.3350965312634245
000740 28 b7 1c e8 39 c9 e4 bf c4 a3 99 8a aa aa dc bf
       -0.6495637448731246 -0.44791663680240057
000750 d4 26 b9 6a 68 dc d8 3f 73 70 89 c3 23 d4 d6 3f
       0.38845262930099733 0.3566979798831717
000760 8f 28 97 90 5c 7b de bf b1 b1 f0 9e b4 50 dc bf
       -0.47627939338838926 -0.44242587586884513
000770 1a 91 b0 1c 6a 08 de 3f bb 8e 13 92 c1 f9 d7 bf
       0.46926358033876314 -0.3746189047362624
000780 61 37 0f 06 c9 9e e4 3f 96 96 2a 2c d7 f8 e8 3f
       0.644382964930383 0.7803760397552704
000790 d1 e2 1d e8 56 3a ce bf cb 9e 99 39 bf e0 e6 3f
       -0.23615537961793234 0.714934933185725
0007a0 ca fd db 9e c9 4f eb bf ac 19 c1 12 99 90 c6 3f
       -0.8534896948548802 0.1762877790044518
0007b0 91 d1 23 07 4d c7 ea bf 87 cf 33 56 23 a3 ea bf
       -0.8368287219478124 -0.8324143108024921
0007c0 96 b7 ee 5a bd e6 ce bf 57 59 ad b8 50 6d 03 40
       -0.2414166158682149 2.4283766200925743
0007d0 12 1e cf 1f c6 7d e8 bf 80 e8 ec fc 6b 91 05 40
       -0.7653532620688017 2.6960067519949575
0007e0 88 4d 90 fd 09 9d e7 3f 02 60 18 8f 0a b5 e5 3f
       0.737919802896088 0.6783497614696901
0007f0 d7 d9 9e 00 97 66 06 40 66 b1 a0 ca 47 db e5 3f
       2.8000927017667254 0.6830176312992478

bias f8 [60]
000000 90 e8 b4 28 f1 cb c3 3f 72 d5 0d f8 84 2c b6 bf
       0.15466131675367878 -0.08661681228644172
000010 4a bf b5 ce 52 e4 b2 bf 7c 36 59 ae 90 23 bb 3f
       -0.07379643961553231 0.10601143127970575
000020 a7 94 22 61 0e 9c ad 3f 41 ec 84 3e 4e cc b5 bf
       0.057831239087400114 -0.08514870668743503
000030 ce 8b 10 63 0a c2 c8 3f f9 8c 2c e4 94 b9 e0 bf
       0.19342164837971015 -0.5226540047191569
000040 7b 24 b6 46 1e 66 df bf f5 5e cb 34 fe 37 df bf
       -0.49060780435008383 -0.4877925410814748
000050 fd 40 47 dc 1b b2 dd bf 1f 0b 8a eb 78 61 d8 3f
       -0.4639959002643222 0.38094923974874634
000060 4c 42 54 a8 41 7e a9 3f 07 03 88 70 08 63 8d 3f
       0.04979138545798331 0.014349046644384978
000070 5c ce 5f 4e 7c f6 d8 bf fa 23 48 04 ea d5 e0 3f
       -0.39004428533300994 0.5261125644329916
000080 01 10 36 70 15 d6 c5 bf f5 18 ce f6 78 c4 e6 bf
       -0.1705958173662339 -0.7114834614192477
000090 dc 0a d0 59 e8 50 7f bf 58 77 ae b5 9d c1 c4 3f
       -0.007645518894608041 0.16215869303862962
0000a0 ba d8 0c 05 34 1f b5 bf 90 8f da cd 89 7f 77 3f
       -0.08250737307830294 0.0057368643735208474
0000b0 08 71 c0 63 c7 55 cc bf 78 57 2d 2c 41 ac d2 3f
       -0.22136776323976215 0.29176358522578694
0000c0 2d c2 05 b9 f6 f7 d9 3f 99 02 12 19 5f 9d b6 bf
       0.4057595068798346 -0.08833879816121239
0000d0 0a 0f b4 d1 14 b3 c9 3f a4 a7 c8 d4 9b c0 b8 bf
       0.20077762832090001 -0.09668897576253116
0000e0 4c e2 7e 3c 21 04 b2 3f 90 49 60 ae 41 38 ca bf
       0.07037551619476651 -0.20484181417903047
0000f0 0e 96 4b 60 45 30 d2 3f 98 c3 10 fa 19 3e cd bf
       0.284196228063906 -0.2284576865218042
000100 a4 d6 ee 53 92 01 bb bf 99 39 31 68 23 09 94 3f
       -0.10549273060936543 0.019566109880821612
000110 5f f2 e5 45 e3 84 d7 3f e1 d1 a8 04 0f d8 37 bf
       0.36748582674025515 -0.00036383024840638654
000120 c2 ce 70 eb b6 eb c8 3f c0 1c 29 77 48 f1 d0 3f
       0.19469343658567168 0.2647267497708974
000130 12 fd 3f cc 54 62 cf 3f 8d e7 7e 6e 1d 92 e2 bf
       0.24518833134786938 -0.580336299716906
000140 ed 77 c3 e6 11 26 c9 bf b4 84 60 9d 6e 9c bb bf
       -0.1964743019843235 -0.1078557142468693
000150 5e 06 fb e9 39 4f d2 bf 34 ba 10 21 90 b8 c1 bf
       -0.28608558511414184 -0.13844491590994468
000160 97 e6 5c cc c4 08 a2 3f f3 b7 fc 40 7d c7 de 3f
       0.03522315020241001 0.4809258589401672
000170 2c 81 cd 84 20 67 a5 bf 04 02 41 7a 6e b3 b1 bf
       -0.0418024217713103 -0.06914415821757564
000180 1c a4 eb 8b 01 96 d5 3f 3d 36 e4 43 e4 80 d2 3f
       0.3372806421671741 0.2891169226648776
000190 45 49 03 39 65 a1 e4 bf 29 7b 24 6c 51 5a d6 3f
       -0.6447015870601623 0.34926257668296273
0001a0 fd 3d 32 21 51 09 a4 3f 5d cd cd 63 52 14 d0 bf
       0.039133582403447754 -0.25124034639812526
0001b0 3c 43 b1 d2 9c 20 d0 3f 2e 58 79 1e 3e 08 d1 bf
       0.2519905145209582 -0.2661280915830301
0001c0 6b 46 f4 fb 68 11 d6 3f 4c aa 61 44 06 a0 c9 bf
       0.3448126278391103 -0.20019605959835685
0001d0 99 cc a2 7b fa 6b c6 3f b7 38 ef 99 9d 18 d6 bf
       0.17517024075423107 -0.34525241882955576

weight f8 [60, 60]
000000 ec d8 af 0d 67 45 e3 3f 46 50 b8 eb 94 bf db 3f
       0.6022219912836397 0.4335682203247909
000010 24 07 cc fb b5 a3 d9 3f 24 11 82 1b c7 a6 d9 bf
       0.40061711873578276 -0.40080430685363155
000020 76 7d 2b 41 c7 60 c1 3f 83 7c d2 62 15 2f e1 3f
       0.13576594049571228 0.5369975023385368
000030 fa cf 7a e6 03 da ca bf b4 b1 3a 75 09 02 8c 3f
       -0.2097782969846092 0.013675760164311913
000040 96 68 c2 85 c8 50 bb 3f a4 bc e9 74 4a 3f ed bf
       0.10670140519724422 -0.913975933404704
000050 6e f1 1e fb 32 aa e7 bf b4 00 ea 12 aa db e1 3f
       -0.7395262627319832 0.5580644959846013
000060 78 f8 3b 09 fd 20 fb 3f fc 96 22 63 4c e2 c8 3f
       1.6955538140023503 0.19440607872564175
000070 39 65 99 d5 73 c9 f3 bf 9e a1 e3 1f 94 bd e5 bf
       -1.2366827338904172 -0.6793919203601495
000080 67 02 01 d4 99 4d e1 3f 1d 9e 6a 7a 72 65 b6 bf
       0.540722765035821 -0.08748546112712359
000090 04 92 9d 4e 1c 5d f0 bf 93 ab 9b 99 9c b4 d0 3f
       -1.0227320738714534 0.2610236644820187
0000a0 42 a7 a4 b2 ce bb d9 3f a1 1e 36 c2 c8 23 f1 bf
       0.4020878548204686 -1.0712363802321436
0000b0 82 ac e8 28 1c fd d0 3f c1 95 43 dd 4e 78 e3 bf
       0.2654486083508304 -0.6084360429346632
0000c0 78 9a 35 19 be 10 e4 bf 19 79 c5 34 c9 ec c4 3f
       -0.6270437710162033 0.163476134078288
0000d0 84 b0 af 21 22 69 dc bf ec d2 48 85 dc cd df 3f
       -0.44391682901073914 0.4969397832494866
0000e0 72 a1 91 bf 91 63 d3 bf 6d 73 82 b1 9d 80 ea bf
       -0.3029522295751327 -0.8282001940711844
0000f0 64 31 ce 8f 7d 56 d8 bf a0 7e 9a ce 99 66 da 3f
       -0.3802789596891414 0.4125122563946011
000100 53 8b 00 99 d5 bc f8 bf f7 8b fb 40 e7 2f f0 bf
       -1.5461021401067299 -1.0116951502211557
000110 af 52 b2 1c 92 c2 d4 3f 8c 6e ba 9a 87 2f d7 3f
       0.32437565615081615 0.3622759829538402
000120 c6 79 66 45 32 23 e4 bf 54 58 f5 58 a9 bc e0 bf
       -0.6292964320635341 -0.5230299699276295
000130 6d 79 58 10 34 51 b5 3f 8b b1 f1 0a 57 ac e0 bf
       0.08327031516134804 -0.521037598967767
000140 e2 e0 80 fb fd 04 e1 3f 53 4b 7a 7a 24 1f d7 3f
       0.531859389512672 0.3612757869788556
000150 8f cf 31 6d 0b d2 dd 3f 2d 10 db 08 97 a2 d4 3f
       0.4659451071122413 0.32242370476547216
000160 49 aa 79 8a 53 0d ec bf 4d 83 d4 4c bc 05 e2 bf
       -0.8766267494768921 -0.5632001400555083
000170 50 75 06 81 10 16 c2 3f 60 82 46 42 a1 e4 d5 3f
       0.14129835414943637 0.34207946274003653
000180 91 a8 a9 6b 0b bd b5 3f 6c f8 3e 54 73 58 e0 bf
       0.08491584185108737 -0.5107971806935558
000190 04 45 39 34 d4 30 df bf 50 bf ad 16 57 e1 e2 bf
       -0.487355280875889 -0.590007347387635
0001a0 0c 59 ec ba fd a1 cb 3f 53 47 05 26 f0 11 bc 3f
       0.215881077071295 0.10964871338117392
0001b0 1c c6 d8 e4 87 31 d8 bf af fc a6 f5 51 0e de 3f
       -0.37802312229459445 0.46962403287393334
0001c0 a0 a6 58 aa 7a 74 f1 bf e9 dd f3 1f db 31 d8 3f
       -1.0909372953559924 0.37804296608325544
0001d0 64 02 15 fb c2 28 d3 bf b8 5c 5c 15 6a 9d d9 3f
       -0.29936289329274346 0.4002328117944205
0001e0 e0 6b 88 9a cd 88 92 bf 10 84 43 8b 0f 57 d8 bf
       -0.01809998756116815 -0.3803137645718957
0001f0 22 3b 82 97 c5 da da bf 44 26 39 14 2c d1 e4 bf
       -0.41960277362606935 -0.6505337138161811
000200 1e 36 53 76 60 69 db bf 64 9c 2e 02 ac c1 8f 3f
       -0.42830668978862885 0.01550611859950219
000210 44 18 93 57 d3 dd e5 bf 20 94 b3 ce 93 a0 a8 bf
       -0.6833283148232643 -0.048100108129610186
000220 d0 8f bb 9c 89 48 7a 3f b0 f1 a0 2d cd 46 d7 bf
       0.006416833446312567 -0.3636963792412429
000230 9c be fd f9 87 59 cb bf 83 49 3f 29 21 90 a8 3f
       -0.21366977411843358 0.047974621090946655
000240 64 23 dd b6 e4 57 c7 bf 74 47 61 56 38 e9 db bf
       -0.182369794167495 -0.43610962329432046
000250 39 4f 64 50 3b b4 d9 bf 72 19 22 9e f5 62 e4 bf
       -0.40162546969189666 -0.6370800102747991
000260 31 e4 93 5a 1e 69 b0 bf 7f 9a 9d 69 a2 64 c0 bf
       -0.06410398208017011 -0.1280711188985215
000270 2e 4e be 56 98 50 dd bf 41 c2 c9 b4 09 13 d4 bf
       -0.45804413291009183 -0.3136619821080196
000280 de 6c c6 24 96 9f d0 bf 6e 19 42 6c 38 14 e4 bf
       -0.2597403868800948 -0.6274683107774714
000290 f0 79 38 a6 76 7c aa bf 39 8c 55 cb 6f 8f ef bf
       -0.05173083094654263 -0.9862593623514676
0002a0 f4 9a db 53 ed 66 f2 bf 61 29 90 43 3e 49 dd bf
       -1.1501286769577606 -0.4575954112812238
0002b0 b5 c9 70 56 f9 c8 f0 bf e0 32 b1 59 60 d1 d6 bf
       -1.049065911921031 -0.3565293193721981
0002c0 10 78 bf 83 f1 a9 eb bf 52 02 34 2e f0 5e d0 bf
       -0.8644950459672618 -0.2557945681765307
0002d0 94 ce 02 6a ae 93 ed bf 10 f2 64 e8 bb b0 d6 bf
       -0.9242775030638364 -0.3545369882083671
0002e0 8e f8 33 49 1d 9e e0 bf a0 da 85 71 5f 4a df bf
       -0.519301074003822 -0.4889143570539236
0002f0 58 da a9 3e 1d 24 ca 3f b6 8d b5 54 06 45 d5 bf
       0.20422711906185742 -0.3323379351843089
000300 cc ce 4a a3 6e 3f f1 bf a1 23 e6 f3 43 82 e8 bf
       -1.07798637186072 -0.7659015430118538
000310 84 5a 5a a9 e2 0a e4 bf 28 64 a3 f5 05 5b cc bf
       -0.6263287837671929 -0.22152781004004507
000320 5b 1a 9e 71 f6 e5 d8 bf 96 e1 4a 83 97 32 d3 bf
       -0.3890358075663351 -0.2999628812936178
000330 bc 22 16 a6 f3 b7 bb bf 1f b1 f1 6c 51 4c d8 bf
       -0.10827563099713705 -0.3796580852420152
000340 5b 68 84 d5 77 97 dd bf 69 19 f8 78 64 a1 e1 bf
       -0.46236987925806766 -0.5509512293508979
000350 ba 4b 1e aa d4 83 de bf dc 9f ad 74 54 11 d2 bf
       -0.4767963086425727 -0.28230773348195526
000360 08 56 76 ba 27 e6 dd bf d0 5f 27 aa b4 ac ec bf
       -0.4671725579185879 -0.8960822413746374
000370 c3 e2 ad e6 9b c0 c0 bf cf 54 ee 9f 47 68 f1 bf
       -0.13087795985827286 -1.087958931665799
000380 7c 37 c8 5d c3 af dd bf 90 1a d8 0d ea b4 d3 bf
       -0.4638527313080585 -0.30791713096588413
000390 9a a6 e7 c1 6f 7b e3 bf 18 26 c9 c7 ba 98 c4 bf
       -0.6088179385380557 -0.16091093783534016
0003a0 cc 71 42 7d d8 2f e3 bf 5f 2b 64 44 31 ac db bf
       -0.599590534827763 -0.43238479307972527
0003b0 b7 52 b3 15 f3 4d eb bf 27 0f f2 4f 1d a3 ca bf
       -0.8532653259122388 -0.20810285953131677
0003c0 b1 45 b9 8d a8 ce e5 3f dd ec db bd 85 84 d8 3f
       0.6814768569985771 0.3830885271160705
0003d0 49 97 6e bb 43 6e d2 3f 54 13 4d 02 f0 29 db bf
       0.2879800157919488 -0.42443466400827856
0003e0 55 55 dc bc ec 24 ab 3f 24 25 f4 1c 39 ed d8 3f
       0.053016088537485 0.3894789488554855
0003f0 f0 a9 11 b8 f4 61 db bf 5f e6 5a 8b ba 6b b0 3f
       -0.4278537557171651 0.06414380933974816
000400 6e ac a5 49 25 f3 9b bf 14 6e 02 a5 0a 1a e5 bf
       -0.0272947145653401 -0.6594289038507122
000410 69 0a c1 c4 95 dd e1 bf b1 84 23 15 4c f8 ed 3f
       -0.5582989542820772 0.9365597164980014
000420 7d a8 1b 0f 3f dc fd 3f d7 e1 6d 5f 04 5d d3 3f
       1.8662710752637672 0.30255231208096006
000430 0e a0 3c df 5e 92 f0 bf cf 37 14 f9 2f 20 e9 bf
       -1.0357350082576917 -0.785179125292183
000440 eb 16 22 68 6b c8 d8 3f bb 62 53 ae 41 f6 d1 bf
       0.3872326390195286 -0.28065530799862487
000450 94 d1 62 a8 f9 8c f0 bf b7 0b da 8d e2 e1 d3 3f
       -1.0344177796915561 0.31066192486485583
000460 22 d4 20 59 35 27 dd 3f 1e 54 62 8d 28 6a ea bf
       0.45551809028558143 -0.8254587899597288
000470 55 01 fe aa 5b f0 ce 3f 42 96 24 5c 1e d1 e3 bf
       0.24171014641980074 -0.6192771720568049
000480 54 de 96 b4 b8 e3 db bf a5 1a 28 93 b1 2c c1 3f
       -0.4357740176742244 0.13417644200690862
000490 f0 44 39 15 0a 87 de bf 10 a0 27 dc a0 78 d5 3f
       -0.47699215004565954 0.33548757075777846
0004a0 14 4f 1b fd fc bc d8 bf c5 da df 35 58 71 e6 bf
       -0.38653492658089417 -0.7013360073313711
0004b0 e9 5b 16 6f c0 0b dd bf 0f a6 1e 1e fe b0 d9 3f
       -0.45384226654408494 0.40142777387026823
0004c0 39 d9 5d 7c 7c 01 f2 bf e9 95 99 28 a4 81 ef bf
       -1.1253628595419072 -0.9845753472297335
0004d0 db 7f 08 c8 2e 6d e0 3f b3 70 99 fe 69 be d1 3f
       0.5133279711626487 0.2772469507524519
0004e0 32 02 b9 57 1c c9 e2 bf 05 c3 88 1a ec 96 db bf
       -0.5870496476491722 -0.4310865649340914
0004f0 5f e6 d5 3c fa 6e a2 3f 6b 82 54 98 5d 19 de bf
       0.03600294106122414 -0.47029819370258136
000500 a4 91 24 ef bd 3a de 3f 4b 83 4c e6 23 63 cb 3f
       0.47233532289308244 0.21396301980078145
000510 76 ab 11 cc 9a 1b e0 3f b1 89 ad 15 39 0a c7 3f
       0.5033697114680382 0.17999948080530495
000520 5d 2d b4 db b4 2a ea bf 51 ed db 68 b0 77 d2 bf
       -0.8177131930437259 -0.28855524292130946
000530 52 b5 31 17 56 a2 85 3f ef d7 10 b2 5f 6c da 3f
       0.010563538153486238 0.4128646124767092
000540 14 19 3c fd d5 21 83 bf b8 3b 16 54 57 fb dd bf
       -0.00934188059865141 -0.4684656449471123
000550 9a f3 59 f8 a6 fa d2 bf c6 34 ac 85 84 2a db bf
       -0.29654859784187126 -0.42447007230732614
000560 92 25 e0 63 d7 cf ca 3f 0b 95 df b9 53 3b c0 3f
       0.20946781517731644 0.12681051803443952
000570 1f b0 54 76 3c c1 d5 bf a5 0f ec ec dd a6 db 3f
       -0.33991920047515295 0.4320597470943944
000580 7f 50 95 3b 86 08 f0 bf bc 15 c7 34 38 0e cd 3f
       -1.002081139323337 0.2269964463904851
000590 06 e1 35 f2 17 95 d8 bf ed 16 e5 c2 e6 b9 d2 3f
       -0.38409994748464305 0.2925965216894458
0005a0 0c aa 2e c0 fb ea e3 3f ce f4 8b 94 c1 77 dd 3f
       0.6224344972191047 0.4604343367244156
0005b0 c5 c3 28 24 68 79 db 3f f9 dc 10 a2 0d ce d0 bf
       0.42928508311439045 -0.2625764925646333
0005c0 1d 27 ab b3 c3 32 d1 3f 13 93 1b f1 3e 8f ca 3f
       0.26872341676481587 0.20749651692235513
0005d0 a4 62 4b 3b 4d eb d9 bf 20 fa 37 eb 67 f3 82 3f
       -0.4049866751716229 0.009253322473338932
0005e0 25 fc eb fe 2a 43 a8 bf 87 3e 74 bd 39 6d ec bf
       -0.0473874508079393 -0.888333196666239
0005f0 6d 86 81 b2 b6 97 e4 bf e0 02 54 82 6b 9d e7 3f
       -0.6435197340435487 0.7379663033935593
000600 6b 60 5a c7 c8 f9 fd 3f 0a f1 44 54 73 2d cd 3f
       1.8734824931362037 0.22794953932487544
000610 a5 38 48 b5 b4 db ed bf fa f5 50 37 22 1a e0 bf
       -0.9330695667902275 -0.5031901436229298
000620 27 5c 6f 03 56 73 e1 3f 3e 6f fa 5f c8 ad c3 bf
       0.5453291003312913 -0.15374092756689522
000630 ae 1d 76 11 a9 11 ec bf ae dd 72 23 db 21 bf 3f
       -0.8771558133166104 0.1216103517098108
000640 b5 28 50 1e 14 8f dd 3f 07 20 23 d2 6f 4f ed bf
       0.46185782394662606 -0.9159468750231107
000650 94 07 46 5c 01 66 d3 3f d8 e2 10 8b 5a 7e e4 bf
       0.3031009102925222 -0.6404240337497766
000660 89 11 aa db a5 2a e3 bf 11 d7 37 13 ca 09 c8 3f
       -0.5989560404128024 0.18779874742875127
000670 b2 05 0f 26 70 2e e4 bf 1d 94 32 e6 a5 22 e0 3f
       -0.6306687110265357 0.5042294975324954
000680 59 d7 b9 90 79 72 d8 bf b8 e2 75 81 24 82 f0 bf
       -0.3819869912471084 -1.0317730958033007
000690 33 84 43 f9 c7 49 da bf e3 56 e8 70 6a 60 da 3f
       -0.41075324384843553 0.41213475252275894
0006a0 13 33 8f fe 52 0a f6 bf 1b b9 61 c7 ea f2 eb bf
       -1.3775205558515082 -0.8734029668974331
0006b0 f2 fd c4 4f a7 2a c4 3f 7a ea 37 6a 70 8d ac 3f
       0.157551683378173 0.055766594854465404
0006c0 b6 8e 6c 94 5d c4 e3 bf fe 44 92 4e a2 a0 df bf
       -0.6177204035670545 -0.4941793219851006
0006d0 db e5 d5 fe d1 8e c7 3f 7f 2d b6 21 61 c0 dd bf
       0.18404602950231105 -0.4648669079985765
0006e0 03 ac 2f 1f c2 bd da 3f 7a f1 0a bf b7 5f c8 3f
       0.41783192678002495 0.19042107418307436
0006f0 c7 cd 3f ce f5 ed d5 3f 4b f3 30 d0 b7 01 c8 3f
       0.3426489366676972 0.18755242982470074
000700 7e b5 6d 40 45 82 ed bf 2f 7e 96 e2 b2 83 ed bf
       -0.9221521623964433 -0.9223265100044439
000710 b7 d0 05 7a f7 ec cc 3f 74 cf fa 51 4d f8 db 3f
       0.22598164995327405 0.43703015333016215
000720 3d eb e3 97 24 09 cb 3f f2 e4 ad 0e 1e 48 dc bf
       0.21121652046698527 -0.44190169747851293
000730 a6 ca 2c 3a 45 2f da bf dc ea 22 55 c1 b9 e8 bf
       -0.4091351574053682 -0.7726751959629286
000740 c3 46 50 62 22 19 d4 3f 2b ff c2 a0 09 11 c5 3f
       0.31403407669959565 0.16458244657223395
000750 7c 66 82 32 ab 48 dd bf a1 89 97 10 19 0c ca 3f
       -0.45756034786754873 0.20349419889596468
000760 ea e0 05 fc a6 08 f0 bf 9b 1e fd 5b 29 08 d5 3f
       -1.002112373795223 0.328623142082941
000770 41 64 2d a5 90 bc d7 bf 01 1a db de b2 8a d2 3f
       -0.3708840954837492 0.28971549762027854
000780 a5 4c 58 fe fb cb e9 3f b1 ca c2 09 4c e7 c9 3f
       0.8061504333185395 0.2023711249981566
000790 f5 53 fe 09 74 c4 da 3f b0 79 86 2e 68 ca ca bf
       0.41824055648731867 -0.20930197021239172
0007a0 cf fb d1 2f ae fa f9 3f 70 81 57 10 cf 4a e0 3f
       1.6237012737253627 0.5091319388557576
0007b0 d7 cf 78 db a5 75 d0 bf b3 bd 26 3c 9a 8d b1 bf
       -0.25718065674595664 -0.06856693237818128
0007c0 cc 59 a2 6b de 65 76 bf 6c 27 66 a1 76 9b d8 bf
       -0.005468243436686792 -0.38448873292565255
0007d0 46 0f 45 8d 24 1d d9 bf 2c 82 ba 5e 74 16 fb 3f
       -0.39240373416781826 1.6929820728620468
0007e0 39 89 91 39 5c fb f6 3f 65 c8 4d c0 9d d8 f8 3f
       1.4363672493714843 1.5528848182553017
0007f0 a9 07 2f fd c2 d4 c6 bf 27 4c 5d 0a ca 0b f7 bf
       -0.17836797106252547 -1.440378227697474

bias f8 [60]
000000 8e 9c c6 c0 d4 a4 60 bf bc 20 10 07 6c 9b e0 bf
       -0.002031722577345691 -0.5189724100064477
000010 83 f4 4f ee 71 16 b6 bf 6a ba f6 de 0e d8 b7 3f
       -0.08627998417064657 0.09314053481532772
000020 ca 08 12 26 ba 75 b6 bf 6d 91 6e 93 18 50 d3 bf
       -0.08773387364820731 -0.3017636718525612
000030 69 41 ee 92 ea 65 c4 bf 99 8f 5d 0c bb 31 cd bf
       -0.15936023878431207 -0.22808015922339278
000040 21 13 b9 5c cd d5 c9 bf 29 ec 2d 10 99 31 e2 bf
       -0.2018372252224703 -0.5685544315341576
000050 0a 15 a6 45 fd 28 c8 bf 3d 52 69 0f 95 59 b3 bf
       -0.1887508955079869 -0.0755856669068828
000060 b4 1a b7 cb f0 c9 c2 bf db 5b 3c 41 a7 06 98 bf
       -0.1467877382949233 -0.023462880474735087
000070 2b a7 fb f3 d8 8c d9 bf 55 8d 76 b7 27 96 74 bf
       -0.39922164751497985 -0.00502601160352197
000080 c8 f2 72 55 4e 56 b5 bf b6 62 4f b0 91 bb 92 bf
       -0.08334817491681712 -0.018293644319643497
000090 8f cd 2e bd e7 3c b2 bf c1 6c 20 02 50 0a 96 3f
       -0.07124184006425181 0.02152371418933963
0000a0 c0 2c e6 05 af 61 a2 3f b5 ef 8f e7 e8 84 c0 bf
       0.03590151736269709 -0.12905608469725185
0000b0 af 43 f0 75 d4 14 ce bf 2f 4f 60 44 26 49 af bf
       -0.23501067885129376 -0.06110496124907027
0000c0 ba e9 dc c0 34 1c b8 bf f0 19 bb 72 4e e4 c3 3f
       -0.0941803904396811 0.15540485956280703
0000d0 1a c1 9d 52 3c 63 e6 bf 06 0c 30 80 9e 1b c0 3f
       -0.699613725051708 0.12584286936916572
0000e0 1d 2e e2 b9 bb 17 c9 bf 2f 41 66 8f e6 00 b0 bf
       -0.1960367829927784 -0.06251374245608042
0000f0 a7 54 d7 a7 a9 dd b9 3f f4 74 d8 ae 18 5f c1 bf
       0.10103855464633914 -0.13571461236362092
000100 5a cb 60 23 74 1f ab bf 00 2e 46 fd bd 4d 8a 3f
       -0.05297434741841896 0.012843593875706993
000110 9a db b5 75 69 7b b7 bf f6 49 5c ca fc 84 a5 bf
       -0.09172686694897295 -0.042030238821229846
000120 ae 79 a6 86 b8 73 7c bf d3 03 17 6d 37 a1 9d 3f
       -0.006946297459221302 0.028935304673499317
000130 9f 31 e0 ef 1e 2a cb bf 74 f8 72 bc 40 cd 9c 3f
       -0.2122229262607904 0.028126727582951053
000140 93 06 59 b4 89 4e c2 bf bb bb 56 26 c1 87 c2 3f
       -0.14302178674738694 0.1447678982926542
000150 97 ca 79 f3 e0 30 c9 bf 0b 29 e6 25 50 55 98 bf
       -0.1968041600080894 -0.023762943566489485
000160 bd 7a 64 ea 1c 8b d5 bf 0c 7f 21 f9 fe 19 b2 bf
       -0.3366157807339894 -0.0707091673116304
000170 6f dd 77 06 c1 88 cf bf f6 be 64 de 72 30 bd bf
       -0.24636090102988414 -0.11402051858453519
000180 d4 f7 ee b0 44 3e e9 bf 8c 48 b4 3b a6 5d c5 bf
       -0.7888511138660257 -0.16692045130963995
000190 11 d3 d4 6b 86 d5 bc bf 2b 70 05 21 86 60 74 bf
       -0.11263313419915401 -0.00497486490379732
0001a0 e2 7c f5 1d 5c 01 b8 bf 04 39 21 f0 50 ae a4 bf
       -0.09377074939174038 -0.0403924267890137
0001b0 13 16 d8 93 84 4e c0 bf 09 ea db 53 2d b0 c9 3f
       -0.1273961755652385 0.20068899721793823
0001c0 7a de ad d4 6d 97 e4 bf c6 81 5a 1c 0a e8 af bf
       -0.6434849885835796 -0.062317195855260674
0001d0 07 89 5e 95 62 37 e3 bf a1 b3 04 f2 36 55 e5 bf
       -0.6005108754509657 -0.6666521765633783
