pendulum_model.pt (torch, 89826 bytes, 12 tensors)

weight f8 [50, 1]
0	0xbfd99d2837bf97fb	-0.4002171081941694
1	0x3fcac78de8d51086	0.20921491497768246
2	0x3fc4f2aff5729f9c	0.16365622982743566
3	0x3fd2b7456c133eb5	0.2924359851285588
4	0xbfd64c8a97ef120d	-0.34842171513835823
5	0x3fc732659622573c	0.1812254889561532
6	0x3fb5a2c78841ac22	0.08451506687713153
7	0x3fdf7e9dd1d3f0ef	0.49210305682187444
8	0xbfc944fc1bd2809b	-0.19741774900922313
9	0x3fc297c12a5174c4	0.14525618139570018
10	0xbfd56de1eefe0bc8	-0.33483169879053465
11	0x3fcf6339b2d6c5fb	0.245215618442259
12	0xbf85d275c00a2ddd	-0.010655326769913149
13	0xbfd430ea53048046	-0.31548555476365825
14	0xbfc68edbc013f37e	-0.1762346923714197
15	0x3fd799323201c091	0.3687253464077083
16	0xbfb1184278e2cddb	-0.06677642299000956
17	0x3fd0789d4e2a6e5f	0.25736172326444334
18	0xbf7ba7b51a7c99d6	-0.006751735148816404
19	0x3fbad5b6cda671f2	0.1048235179973245
20	0xbfc0885684691100	-0.12916070428230597
21	0x3fc647fb432fc678	0.1740717008647612
22	0xbfca47edac5e2a87	-0.20532008091352713
23	0x3fd20c86c07ea559	0.282014549239269
24	0xbfcddffe951aa3f9	-0.23339826851341153
25	0xbfc24a52369bc66d	-0.14289310137205594
26	0x3fd44e13e0c5f41c	0.31726548147691047
27	0x3fb4b5697346e440	0.08089312614801347
28	0xbfd45fc5be6e2edf	-0.31834548565596593
29	0xbfd9d699c5181809	-0.4037231850383028
30	0x3fd517eeee74714b	0.32958577429396446
31	0x3fca0294a112024e	0.20320375313532896
32	0x3fc7bfe83a386c1c	0.18554404108803702
33	0xbfc3e887009754c5	-0.15553367165435908
34	0x3fcc3f59bd2ed407	0.22068330514380838
35	0xbfd4be168a8bd8ea	-0.3241020539275171
36	0xbfde0300fabede40	-0.468933338993768
37	0xbfd9eab5ac7f5007	-0.4049505409759608
38	0x3fc43055d97a906d	0.15772507781105408
39	0xbfd665103ca953b3	-0.34991842197387796
40	0xbfd41ba0219dea0d	-0.31418612749953995
41	0x3fbbcfff51fead23	0.10864253761126412
42	0x3fd3ffb724089e74	0.31248262900269386
43	0x3fcadaf195f2a551	0.20980663129493363
44	0x3fb7bb45207a05c3	0.09270126383673642
45	0x3fd9f57479feea09	0.40560638345382977
46	0xbfc516c51abcdb1d	-0.16475738339951188
47	0xbfb82ed31f26ea45	-0.09446448813006565
48	0x3fd21c4563631371	0.2829755278183291
49	0xbfd267361e587ea1	-0.28754952395864036

bias f8 [50]
0	0xbfed134fd609850b	-0.9086074047483249
1	0xbfdc59803834df78	-0.44296269883078976
2	0xbfed83e2ebc34bc1	-0.9223494152778288
3	0x3fe1bbf807d93716	0.5541954186716989
4	0x3fefc7c7334c999c	0.9931369783342237
5	0xbfe5130a9d83fc74	-0.6585743977046961
6	0x3fe9084f1f4b9fbf	0.7822642909277348
7	0xbfe8a84a02ea0702	-0.7705431038777706
8	0x3fe43e61a48ea501	0.6326149190910259
9	0xbfe99a761012d1a2	-0.8001051248489157
10	0x3fe2c66d38b94d5c	0.5867220027816233
11	0xbfe56a96ea879055	-0.6692614155440518
12	0x3fe2d923dd32e90e	0.5890063591280368
13	0x3fe4b831a12a34b6	0.6474846027137093
14	0x3fe770faa4ff9a1a	0.7325413916231043
15	0x3fb38b1453f20760	0.07634093331765035
16	0xbfd28bb3069059e1	-0.28977656975749083
17	0xbfdc0c0a633db942	-0.4382348984862753
18	0x3fd9c5486a18fadc	0.40266619073001464
19	0xbfd5833992c2ea7b	-0.33613433200995474
20	0xbfbe88c8b40f13b6	-0.11927465816468338
21	0xbfc5607f835a5898	-0.16700738824574013
22	0x3fddf2cccff4fca2	0.4679443388776666
23	0xbfbe4f8e18944399	-0.11840141391827642
24	0xbfe4d57253cc15a0	-0.6510554920829925
25	0xbfe00af808a17a65	-0.5013389748163034
26	0xbfb64f31f2ea6cac	-0.0871459215217551
27	0x3fe011c7f1f2f816	0.5021705365722962
28	0x3fefbf6eb4007a00	0.9921182170544967
29	0xbfee961b7e0ece7b	-0.9558236562792922
30	0x3fde939249c5a982	0.47775704578693745
31	0xbfea7e94e6d0901f	-0.8279518612002937
32	0x3fe94a33c1efe048	0.7903078830559105
33	0x3fd1ee0910f97423	0.28015352876338023
34	0xbfe6f90da19f1264	-0.7179020077388256
35	0x3f815aa3c0d4c9d5	0.008473662683717112
36	0x3f85f76d2f078d36	0.010725834844328302
37	0x3ff21ff77664122f	1.1328043579716327
38	0x3feb4366b7d01c57	0.8519776907059037
39	0xbfd18c32f404e03b	-0.2741820700644017
40	0x3fd718d9824a95a4	0.3608917019249367
41	0x3fe837226cfb2d98	0.7567302826441162
42	0xbfea3d75d77ada1a	-0.8200024803725825
43	0xbfed873eff09f2a6	-0.9227595311382017
44	0x3fda98bedfc58e78	0.41557285168366986
45	0x3fe6f9239a2c53e3	0.7179124842829164
46	0xbfccf99301cb3c4c	-0.22636640155403354
47	0x3fdcf20ab94afb3c	0.452273064565748
48	0x3fb3396bdbd9eb69	0.07509492986166112
49	0xbfd3f45a663f73e5	-0.3117891310228614

weight f8 [50, 50]
0	0x3fbd456f1b68bee8	0.11434072894257563
1	0xbfce757d6dc82319	-0.23796050892294643
2	0x3facf6d4079eebf7	0.05657065003421018
3	0x3f6304c3a44514f9	0.0023216076971573876
4	0xbfccd989d47f00e1	-0.22538874507700427
5	0xbfc75a00c80cfbde	-0.18243417518712496
6	0xbfc3b8d997075fa1	-0.1540786731190993
7	0xbf9fa7ff1ddb3543	-0.030914293477328113
8	0x3fa9fcee41f2e5af	0.05075783305205605
9	0xbfaa1322f44e4ec2	-0.05092725021600365
10	0x3fc184fcb48bb7fc	0.13687094512664533
11	0x3fc4c6026be5dc69	0.16229276913120153
12	0xbfc9aaa1e7596cde	-0.20051978870728865
13	0x3f9e521626680f5d	0.029610010236879137
14	0xbfa19fd8106ac538	-0.03442263794330319
15	0xbfc5ce23903b954c	-0.17035336058249084
16	0xbfc5bd1818617581	-0.169833194641722
17	0xbf9e57edadf38888	-0.029632295362610722
18	0x3fb29321a951db00	0.07255754836829098
19	0x3f8bd22e9a14c867	0.013584484173950707
20	0x3fcbb8875398e2c4	0.21656886655707386
21	0x3fcab70812ab47ab	0.208710679164651
22	0xbfc674e04c240239	-0.17544177739911662
23	0x3fb6eeba8f70704c	0.08958021165784763
24	0xbfc0522f2b1457d0	-0.12750806430329797
25	0x3fbaf6dcb0bb265a	0.10532931627963063
26	0x3fb1407bc3c1cb03	0.0673901894495366
27	0xbfc6a0ffac5c3bfd	-0.17678829113035013
28	0x3fb6e3d0eda70e3a	0.08941369821609949
29	0xbfc61bb1c34cc285	-0.17272016559720185
30	0x3fc6e1db08f18a2d	0.17876756607718516
31	0xbfa92ee3d9fe6d7f	-0.049185867653444675
32	0xbfc63df17c660b35	-0.17376535963202291
33	0xbfccd3915ebacb81	-0.22520653844329888
34	0xbfa993c3e4f1b450	-0.04995548410156714
35	0x3fc85906dd77d300	0.19021688283796578
36	0xbfc63a529f8391d3	-0.1736548689724616
37	0xbfc992a0a8bdf528	-0.19978721846920533
38	0xbfbc29f8b075239a	-0.11001543338819744
39	0x3fbf90ca586cc4c5	0.12330307635126576
40	0x3fceca00e2addbf0	0.24053965633694885
41	0x3fcd07c56aedffa2	0.22679965706992983
42	0xbfcd4e902b40e4d0	-0.2289600573729218
43	0x3fb0eb772297d593	0.06609291643675012
44	0xbfa6208e683b6b2a	-0.04321713468899298
45	0xbfbeedbce5388830	-0.12081509205066321
46	0x3fce77b8feee6b85	0.23802864501780277
47	0x3faaceb82edb4ad7	0.05235839435558425
48	0x3fc5b24a5d5f4785	0.16950349387348865
49	0x3fa6ced344e471e3	0.04454670158358789
50	0x3f86981e78541abc	0.01103233151162663
51	0x3fcb1d7021d7830c	0.21183587696489103
52	0xbf9430447c6b481f	-0.019715375989854175
53	0xbfb6c77caa14cc39	-0.08898142959951451
54	0xbfc9f5d5e92def47	-0.20281480680193395
55	0x3f90b2701f4a2fc6	0.016305686864640533
56	0x3fc7913e6a3ce05a	0.18411998927490708
57	0xbfc6f97c79bac3a1	-0.17948871558976712
58	0x3fc98f7a61d6df2c	0.19969110276519453
59	0x3fb5f8b437966ec8	0.08582617146606275
60	0xbfbbd4f24e795093	-0.10871805587641097
61	0x3f8d44d4a1e31885	0.014291440191652302
62	0xbfce1af8d73e03d1	-0.23519812116503983
63	0x3f97da46c665b011	0.0232935961334278
64	0xbfc29e8e4ed3eb77	-0.14546374176992646
65	0x3fab594c9510d49a	0.05341567344331928
66	0x3fa38ad3678414d1	0.03816853178617808
67	0x3fc439323d077896	0.1579954908365308
68	0x3fc2cb667379fead	0.14683228147986452
69	0xbfc12709367d78ad	-0.1340037838044216
70	0xbfccc079d8b27fd7	-0.22462390023156217
71	0xbfcbe314456c3edb	-0.2178674067476923
72	0xbfc59e265c8d1541	-0.16888885039421989
73	0x3fcb4c4629d24fc0	0.21326520006243577
74	0x3fcd06b7ad07158c	0.22676750134102652
75	0x3fc599d3ecf4786f	0.16875695295397317
76	0x3fb35cb68d2a8422	0.07563343950688808
77	0xbfc1b0c99f7d68bc	-0.13820762908546225
78	0x3fb1076aed41f136	0.06651943485662035
79	0x3fbaf79bdd1f0f91	0.10534071110219957
80	0xbfcbfbc2831112f7	-0.21862059974423406
81	0xbfb1283a89ad34cc	-0.06702009068722531
82	0xbfcc4227d0cc3a22	-0.22076890654757714
83	0x3fcd90757542fa0c	0.23097103334107805
84	0xbfc063f8015c83ee	-0.12805080477212932
85	0xbfb3f5e525423571	-0.07797081145891639
86	0x3faed241f2941924	0.06019788824237285
87	0xbfb68b1c969fa7a9	-0.08806017567954307
88	0xbf9cf2526d00917b	-0.028268134978263398
89	0x3fc37ee4548f5845	0.1523099339380584
90	0x3f9dd923b6ee9155	0.02914863399532071
91	0x3fb6ec40d8ab6313	0.08954243936331023
92	0x3fb182b9c306e1ee	0.06840096484564359
93	0x3fc68df59276d9fc	0.1762072529943025
94	0xbfc7992a7fcda703	-0.18436175575634914
95	0x3fcbfae049f2c6e2	0.21859363184699193
96	0x3f85362c2ecd8525	0.01035723226385927
97	0xbfcc072922bf7383	-0.2189685268084781
98	0x3f9420334245a929	0.019654084129265535
99	0x3fc5e8c4ad68103c	0.1711660238944449
100	0xbfc7cadb2bbfff7e	-0.18587817798833933
101	0xbfb5733fc934db46	-0.08378981268184046
102	0x3fa218d1f3bb1f00	0.035345612528145054
103	0xbfc467e9d1cde0d3	-0.15942118400903968
104	0xbfc20b68b2c0a2a9	-0.14097317436359916
105	0x3fcb4faafa124c0e	0.21336877069970267
106	0x3fc2f333b5c33223	0.14804693579789427
107	0x3fa727f750461c04	0.04522679190545634
108	0xbf9f3d400b976790	-0.03050708838222921
109	0x3fbd2f764e5f2aeb	0.11400546468136567
110	0x3fc56d6372a56e4f	0.16740077112159432
111	0x3fcb0c0d4c4f8c36	0.21130529619321842
112	0x3fb27dcc6944ee0d	0.07223203249025563
113	0x3fc287d59ba5564b	0.14477033710379525
114	0xbfcd7eac78666897	-0.23042827490718729
115	0xbfcd417351bf10fa	-0.2285598897125352
116	0x3fc98cc2729c7b50	0.19960814090969814
117	0xbfa99b4df0af1e39	-0.050013003950479314
118	0xbfb67464fa8ed508	-0.08771353833329354
119	0x3fbe23c32bda5e71	0.11773319073324175
120	0x3fbfdfd5b5bf6400	0.12450919806668992
121	0xbfb1418499e06a8b	-0.06740597492936666
122	0x3fc8ec5ea762de64	0.1947134320559939
123	0xbfb9a37791d57cf9	-0.10015055952452546
124	0x3fc15f5be0095253	0.13572262229230833
125	0xbfb26cd0b6f79002	-0.07197288958519724
126	0xbfc574bb45440df6	-0.1676248634540653
127	0xbfced7faa8e9c24b	-0.24096616027556403
128	0x3fcbcbeb33c26eeb	0.21716060664481715
129	0xbfb206adccd91889	-0.07041441203281996
130	0x3fbeba4b45812945	0.120030121296769
131	0xbfc816d690cd2ee4	-0.18819696493516525
132	0x3fa8946c0067ed56	0.04800736908870344
133	0x3fca7144c3878e15	0.2065816836103386
134	0xbfcdc959a9ef809b	-0.23270722196230484
135	0x3fce9bf6967b5fe2	0.23913462016821457
136	0xbfba2874a054255b	-0.1021798030307272
137	0x3fcce95d898229e1	0.22587174619941577
138	0xbfb6dd7cbc491ee1	-0.08931712719742847
139	0xbfa59001d0c24004	-0.04211431191754403
140	0x3fc36bfc4be80a23	0.1517329569470159
141	0x3fa056d52775812b	0.03191248041798852
142	0x3fc1c0a5ba079eb9	0.13869163115963604
143	0xbfca8ce79856888b	-0.20742506922130519
144	0xbf9b3c5c328f5c13	-0.026597443185746594
145	0x3fcb498d1619bf2f	0.21318210200433316
146	0xbfc3a667afbf7dc7	-0.1535157783646197
147	0x3fc8119c7682780b	0.1880374506626484
148	0xbfc2801ac0f9f240	-0.14453443930314513
149	0x3fb13e3671645cbc	0.06735553997383453
150	0x3f8f6ed231e29b20	0.015348093173384536
151	0xbfc5bc7910b8173a	-0.16981423679697533
152	0x3f9285bae0a220b5	0.01808826442768981
153	0x3fb8379f3443b5e6	0.09459872270573264
154	0xbf9ecfecdc8c5c9f	-0.030090046845626103
155	0x3fc37818cdd1872c	0.15210256623964236
156	0xbfb05c30ce04ec53	-0.06390671758428938
157	0x3fb9617ba4f34bdc	0.09914372231587215
158	0xbfa4181850753920	-0.039246330091019965
159	0x3fc1bd104fe2bd01	0.13858226681393407
160	0x3fc101af8b171a4c	0.13286394397273893
161	0x3fc518a3dcb58e91	0.16481445576493006
162	0xbfbc1e4ebe1e0dc4	-0.10983745709932352
163	0x3fd063ad23377cbd	0.25608375968108615
164	0xbf412c2ff98fe60c	-0.0005240663768965605
165	0x3f9e35cb0e778ae9	0.029502079732888573
166	0x3fb3ee0fed023e3b	0.07785129104944925
167	0xbfd0442572ac34f1	-0.25415931890968496
168	0xbfa1cbffed513f61	-0.034759519309431004
169	0xbfcfbb85fea1e995	-0.24791026051736922
170	0xbfa076f09e4e8347	-0.032157439541384884
171	0xbfbda7ca9eb9e30f	-0.11584154486798702
172	0xbf63af8a2dd30853	-0.0024030398186321382
173	0xbfbd72f7787256dc	-0.11503550234405274
174	0xbfc3320183f7cde4	-0.1499635595679215
175	0x3faf6f7e63ced8ff	0.06139750450476988
176	0xbfcba96d5f8c43d1	-0.2161080090086487
177	0xbfc1ef24db20a1f8	-0.14011059474547927
178	0x3fc31c1502cd25c3	0.14929449688706428
179	0xbfc7dcf3e80de3f2	-0.186430443103546
180	0x3fc9c54bac8e0404	0.20133348393940775
181	0x3fc3dc1bc9239d50	0.15515467950101902
182	0xbf854647c42a7f57	-0.010387955354701424
183	0x3fc4cc8c7f57bb4c	0.1624923345366035
184	0xbfa6328875e13305	-0.04335428656540866
185	0x3f9174962e306cf8	0.0170463052455547
186	0x3fd04b3e96cba111	0.2545925591098391
187	0xbf96a95fc80a57ad	-0.02213048609208783
188	0xbfcdfe574f3d0a26	-0.23432437295021308
189	0xbfc131a45a8c89a2	-0.13432745381676364
190	0x3fc777887efaecd2	0.18333536339000617
191	0x3fc7d40bc32fb732	0.18615862875543027
192	0x3faae805f6257339	0.052551447198061436
193	0x3f7f2f13f8ed3261	0.007613256470744818
194	0x3fc07c1e2acd501f	0.1287877758974227
195	0x3fb5de0be62a1e6c	0.08541941041232243
196	0x3fcdba16ad1c638a	0.2322414727466618
197	0xbfa0f7616d5a61d7	-0.033137364004861496
198	0xbfb1076ecb55250f	-0.06651966537642216
199	0x3fcfcd140359372d	0.24844598926068198
200	0x3fc0e455e4dfaed7	0.13196824717976227
201	0x3fc3e178adfebc39	0.1553183412156345
202	0xbfb01c90ba57d322	-0.06293587254897351
203	0xbfc9f59e6b8931c0	-0.2028081917836868
204	0x3f81df7b6e617aaf	0.008727039629034065
205	0x3fc03b779e290f34	0.12681479666400153
206	0x3fcbd3cfb56ee551	0.21740146979372324
207	0x3fa205f02e9e919a	0.03520155495724282
208	0xbfaf898b0da55011	-0.06159624616216786
209	0xbfd0185fbb49f861	-0.25148766794143823
210	0xbfc3172b2621cbf7	-0.1491445480529305
211	0xbfbd81eca74b98ce	-0.11526373943670196
212	0xbfccfc6d2fc8f8de	-0.22645344575170773
213	0xbfa578d384b72ffd	-0.041937456083900294
214	0xbfa2fbcfaff9b57c	-0.037077417594313794
215	0x3fb3a14bb686f82d	0.07667992788535179
216	0x3f8402380fa3be0e	0.009769857384951865
217	0x3fa7344a4829c5f7	0.04532081728838116
218	0xbfbcb185556c59af	-0.11208375297096639
219	0xbfd0a0e675d4755b	-0.2598205710108538
220	0x3fc96942e307e712	0.19852481923572235
221	0xbfb3dce777fef829	-0.077589480205433
222	0xbfc6985da9ac7038	-0.17652483734934932
223	0xbfc61119737e9dee	-0.17239683284172663
224	0xbfc753d4eb25736c	-0.182245840852285
225	0x3fcf0a031cf0b0eb	0.24249304688544923
226	0x3fb7fe4e024d809a	0.09372413212031674
227	0xbfb66a2c8e081b8c	-0.08755758731432034
228	0xbfa1028c55aece9d	-0.03322256608899219
229	0xbfcae2117cfa61d3	-0.21002405741161442
230	0xbfb453ffd58e8a0f	-0.07940672839917105
231	0x3fc61268f0c76fab	0.17243682629384458
232	0x3fa921ee568363fe	0.04908699804372672
233	0x3f606ef6a4847884	0.002006036495131149
234	0x3fc20fb33d0b70de	0.14110413056085397
235	0x3fac411366993d44	0.05518398883270462
236	0x3fc76da9f8aaedd3	0.18303417818047638
237	0x3fb399b41a8659e1	0.07656407973841041
238	0xbfae6ab6370a0981	-0.05940789625039412
239	0x3fcca1924b66f0bc	0.2236807697462434
240	0xbfcc0f77a8cf8f4a	-0.21922202818597675
241	0xbf95173276a97ac5	-0.020596302502208248
242	0x3f9692a449be7e4a	0.022043768883689453
243	0x3fcbe5349b957402	0.21793229672303488
244	0x3fc58615b2f6c77a	0.16815444220042847
245	0x3f67bb4b802c534d	0.0028969263670525548
246	0xbfca7a2863ccf9ff	-0.20685295937614964
247	0x3fc20e8d34d55482	0.1410690792060088
248	0x3fb3e36f9952f86b	0.07768914693130717
249	0x3fc2d0a676ccfe64	0.14699250031297872
250	0xbfbf38e926d03f12	-0.1219621391066961
251	0x3fb832be91fdd713	0.09452429832694191
252	0xbfc73580dc9461ab	-0.1813202931450751
253	0x3fcc5dbbc1f16e81	0.22161051721456107
254	0x3fc2c86d8a459a9a	0.14674157382542746
255	0xbfc7aa5bbd1d8364	-0.1848864243902667

bias f8 [50]
0	0xbfc0319c545968d6	-0.12651399725547802
1	0x3fbff0870a4476d2	0.12476390839261889
2	0xbfc261272e3c54b5	-0.14358987577057794
3	0x3fae68da25c14bba	0.05939370833279818
4	0xbfb3c366fbfe65fd	-0.07720035221282014
5	0x3f7a53d28f72dc75	0.0064275956166773745
6	0xbfb19d6fa3df1cb0	-0.06880853415269672
7	0x3fc3c1ff6eb69f4a	0.15435784250188994
8	0xbf98e7077292e99c	-0.02431880604556512
9	0xbfb3b39ba9676740	-0.07695935140455124
10	0xbfc1f36df5a49f05	-0.1402413796833956
11	0xbfc0b6999bd6d736	-0.1305725108083437
12	0xbf9d66247fe33e24	-0.02870995550693868
13	0x3fbc70c687a976fc	0.11109581768092974
14	0x3fae01e8089ea46b	0.058608294536789916
15	0xbfb46dfde9ba67fe	-0.07980334240201611
16	0x3fb0978a4d73fdc3	0.0648123206228695
17	0x3fa611f6a88d2c86	0.043105800700311156
18	0xbf9b3a10b5621383	-0.026588688917871927
19	0xbf7794eece70ed3c	-0.0057572677970328355
20	0x3fbde8bc08adc378	0.11683249675639995
21	0x3fb83a03d74f20cc	0.09463523871011431
22	0x3fb857adaa9814e8	0.09508786597151053
23	0x3fa3e711b1fa7bc4	0.038872292495617994
24	0xbf957d4b1b7d806a	-0.020985768845435272
25	0xbfbaec353d94881a	-0.1051667476026811
26	0x3fac382cfc14488a	0.05511608674181996
27	0x3fb9a1a1eb5ffe4f	0.10012256618937808
28	0x3fa454880b0cf307	0.03970742354292694
29	0xbfb2dbaf6c629e06	-0.0736646308529246
30	0xbfc1f74eef03c20f	-0.14035975142134346
31	0xbf952a6240d90d5c	-0.0206694938735955
32	0xbfb28146bacb8767	-0.07228509960580497
33	0x3fab669101841630	0.0535168947554151
34	0xbf9d31a4042de28e	-0.028509676699715096
35	0xbf9dfddb6456266f	-0.02928870010285894
36	0x3f981b2c9af74c77	0.023541161497473397
37	0x3fb9be4f06791966	0.10056013019593521
38	0x3fa2342641c11c16	0.03555411865868778
39	0xbfb751a296f744e2	-0.09108940301600257
40	0x3fc1fb11d993240c	0.14047453998344428
41	0xbfb03cf45c620a3d	-0.06343009238666127
42	0x3fa71c9a4d744b4b	0.045140096621386926
43	0xbfb941d09fd65544	-0.09866050627018291
44	0xbfa0c6f00ccaa388	-0.032767774163693864
45	0xbf91c459e7af4d48	-0.017350582853237456
46	0x3fa9a14045b2de78	0.05005837298216148
47	0x3fc118373348338b	0.13355150226598442
48	0xbfc0db50f7ff15b4	-0.13169300183487354
49	0x3fa83af126c5bb50	0.047324691756208126

weight f8 [50, 50]
0	0xbfbb080187f8415b	-0.10559091157506854
1	0xbfc8c05d5ccbde12	-0.1933705046755994
2	0x3fd64aa03b1da6ae	0.3483048035910582
3	0x3fc63dbb79236b52	0.17375892081221395
4	0xbfaeffe4a9ec2186	-0.06054606031654246
5	0x3fcbccb42a9f031e	0.21718456345663467
6	0x3f9842779b72babc	0.023691052305987212
7	0x3fce49a74a08963f	0.23662272562903472
8	0xbfc43f9698fe6077	-0.15819056005853202
9	0x3fb23f8f056e4670	0.07128232843958826
10	0x3f8de663c13070df	0.014599589665572342
11	0x3fc5784ed2b1df38	0.16773400581200248
12	0xbfcd2a5c72e3e370	-0.22785525903580206
13	0xbf660d93d2b3df87	-0.002692021099956979
14	0xbf90cf6d8df86525	-0.0164162748243132
15	0x3fc193f15c63068a	0.13732735644412158
16	0x3fd63ff39e536a4a	0.34765329801090117
17	0x3fc28bd6aa228222	0.144892533372528
18	0xbf7f44388744323a	-0.0076334198131574
19	0x3fcd30942b47a3b0	0.2280450068786002
20	0xbfd0c5592071993a	-0.2620451752503815
21	0xbf8f6201dcd508ee	-0.015323652793658184
22	0x3fba049afa869a75	0.10163277260162736
23	0x3fa3929889cee18e	0.03822781259754314
24	0x3fd7a79929f212cc	0.3696043882012361
25	0xbfc46464f4e6b957	-0.15931379278249366
26	0x3fb2cace5b6ac6e3	0.07340707523215033
27	0xbfd34413a1dd44c5	-0.30103007132590803
28	0x3fcf1d9c9f8180f4	0.2430911806905055
29	0xbfcd3f2235782e14	-0.2284891854363741
30	0xbfcd427f0b8601b9	-0.22859180510205393
31	0x3fc983ebd4c2ef20	0.19933841599219537
32	0xbfc05c4f7dd4ae4a	-0.12781709331589958
33	0x3fcdbf50dcd3f73d	0.23240099699608577
34	0x3fa33802fd2a64ac	0.037536710170749416
35	0x3fc3f791514f0ac0	0.15599266500620068
36	0x3fb289865d2e1f69	0.07241096281916061
37	0xbfd2bc0adca07524	-0.2927271990354987
38	0x3fba26b635f68558	0.10215319459395766
39	0xbfc3341615db26b7	-0.15002704684439092
40	0x3fd34ce38a530c1f	0.30156792171709584
41	0x3f97ec0bee6c1139	0.023361383845455583
42	0x3fb51a9654cc0294	0.08243693895566145
43	0xbfcdba7f2a19936b	-0.23225392871531922
44	0xbfa92256df08d405	-0.04909011337841921
45	0x3fc116b5d0e138f6	0.1335055608673838
46	0xbf96066e2387f07d	-0.021508904379502248
47	0xbfb96e7891e821ad	-0.09934190332581379
48	0xbfcc201926e95500	-0.21972956085179618
49	0x3fbb42f464abc81a	0.10649039705074906
50	0x3fc9aa845db8d274	0.20051626755015983
51	0x3fc84f9476b571dc	0.18992858692480652
52	0xbfc81989796195b9	-0.18827932764831504
53	0xbfb1338d81dc9992	-0.06719288273288829
54	0xbfc4ccba9e5f6dbc	-0.16249783261342354
55	0x3fba52fe99a79d70	0.10282889605843137
56	0xbfc6afd5d1b54b27	-0.17724106540352944
57	0x3faf13e842db114a	0.06069875541791932
58	0xbf513ab851e34712	-0.0010515975950977125
59	0x3fa4aa5642f5f5b4	0.04036206786529864
60	0xbfb74afe30828992	-0.0909880512649919
61	0x3fcca4293fd6a060	0.22375980012043595
62	0x3fc194b15119bbbb	0.1373502393721234
63	0xbfc857a7a6259e21	-0.19017501461642985
64	0x3fc928ce559f028b	0.19655780010909427
65	0xbfaf52326db97d36	-0.06117398824130264
66	0xbf9ac9e992615d22	-0.02616085964140525
67	0x3fb80c161ec179f7	0.09393442393182015
68	0x3fc68c260dd5ad48	0.17615199733277564
69	0xbfadf3a9ce54a198	-0.05849962848361939
70	0xbfaffc759f8f257e	-0.062472987868726
71	0x3fc7bd56b419c175	0.1854656581304074
72	0x3fc5be7756536795	0.16987506594778937
73	0x3f9b20e02c6518b2	0.026492598256731177
74	0xbfcad393335c232b	-0.20958175666626153
75	0x3fcb8bdbb980d906	0.21520563657549746
76	0x3fc71e30bbb035e0	0.1806088367888341
77	0x3fcd26382a8e4dab	0.22772886350558727
78	0x3f9ed23551901bb2	0.030098755934911466
79	0xbfc7245f95b881d1	-0.18079752741415558
80	0x3fc25ae3a822ed16	0.14339872083460453
81	0x3fa68e184e0e4980	0.04405284836606693
82	0xbfaf29591a322dd8	-0.060862335632090925
83	0x3fc67b9a30be400d	0.1756470430377707
84	0x3fc9f215afca4036	0.20270033915994795
85	0x3fa16c5081b85b96	0.03402949889657873
86	0xbfc2163fff9914c1	-0.1413040159260728
87	0x3fc555b849494391	0.16667846277644263
88	0xbfb632868f8cfc92	-0.08670845989853351
89	0x3faf0dc7158c827e	0.06065199029967959
90	0x3fb2892f623764fb	0.07240577838765098
91	0x3fb5951a250aaeb1	0.08430636791552605
92	0x3fbb3f425e8cd5d3	0.1064340096316621
93	0x3fc33f9b13f6c4d7	0.15037859415818985
94	0x3f901bc96ac3e5cf	0.015730998174125873
95	0x3fb06264b09746b6	0.06400136290838074
96	0xbf842e529be86cdb	-0.009853978522235731
97	0xbf7332d92416463b	-0.0046871645039501765
98	0xbfca1f8855495ca3	-0.20408729709990778
99	0x3f8a5c2ccea92c98	0.012871122414386968
100	0xbf96f2d832e7c593	-0.022410753352180967
101	0xbf8a9614b189297e	-0.012981568973505327
102	0x3fc7b8993ea1eaca	0.18532100256182665
103	0x3fc98d4b923541c9	0.19962448729576313
104	0xbfc48d6ac0d41d16	-0.16056570449311697
105	0x3fc029928cdea2cf	0.1262686908569521
106	0x3fcbe7476494b710	0.217995571243073
107	0xbfc71d78ca2adb46	-0.18058690902190672
108	0xbfa876da4548fa00	-0.04778177352681112
109	0xbfbb899bbabdc466	-0.10756848630059465
110	0x3fc590bc5e441487	0.1684794864924337
111	0x3f8f45521ff47960	0.015268937683285244
112	0xbfc709983858d1a4	-0.17998030425372946
113	0x3f9ce0936d5f2e2a	0.028200439024472036
114	0xbf85c45fb27d2d88	-0.010628459581900854
115	0x3f989e1c2920dcc5	0.024040641794468316
116	0xbf915a76edcba01d	-0.016946657432441826
117	0xbfabc99f49cd8daa	-0.05427263046183424
118	0x3fc11c9fb622b071	0.1336860312779922
119	0x3fb87b847a03212b	0.0956347272759827
120	0x3fc040bf37a0a270	0.1269759198778675
121	0x3fbbdf303f109ebb	0.10887433566733311
122	0x3fc1b9b4e07eb9c0	0.138479814163885
123	0x3f8ca10c67ce09f1	0.013979050557968416
124	0xbfb09a9266aafcb1	-0.0648585796979997
125	0xbfc31b35349f0cfd	-0.14926781720541973
126	0x3fd044b2108339fd	0.25419284451064056
127	0x3fb36c20e14b23f9	0.07586865902261754
128	0xbfc1eeb380d56b8d	-0.1400970820494333
129	0xbf9d5c1b17c819bd	-0.02867166836406353
130	0x3fb46ea6072dc4e9	0.07981336283934905
131	0x3fc18bc3a10e076f	0.13707776416782333
132	0x3fc3a3e625e56c4c	0.15343930101775738
133	0xbfa094d53f025a49	-0.03238550562052873
134	0xbfc3d285dc124114	-0.15486214872044768
135	0xbfb66b52f00cf5a4	-0.08757513390170019
136	0xbfc2abab8c31b44e	-0.14586395593088003
137	0xbfc533324c5666fb	-0.16562489249627518
138	0x3fb49d77683f3126	0.08052774710740049
139	0x3fca29812671b234	0.20439161660341798
140	0x3fd16a93ad567740	0.27212993552699416
141	0x3f857bdc4a5936d3	0.01049015142339319
142	0xbfb9f484e52353b7	-0.10138731569470748
143	0x3fad066607a6d6e9	0.056689442094848115
144	0x3fc71fefd9c8ef7b	0.18066213735607647
145	0xbfcba46c80029941	-0.21595531702514317
146	0x3f8385ecd3c7f7f7	0.009532785618826962
147	0x3fc4d25ccc03497a	0.16266975366177033
148	0x3fc94840998fa87d	0.19751746652702087
149	0x3fbf4c03630a5325	0.12225361984230838
150	0x3fc465285de5404c	0.15933708748571218
151	0xbfcb40fd749088af	-0.21292083922987134
152	0xbfc774692e6fe61a	-0.18324007766186484
153	0xbfcbdc8a12421ea0	-0.21766782657163208
154	0x3fc1c96dcebd8500	0.13895962328664524
155	0x3fa743721b7c846b	0.04543644509818353
156	0xbf928be5444e4b33	-0.018111784261758145
157	0xbfc9708841b70bed	-0.19874671181432238
158	0x3fc09d66d9575f1a	0.12980352032058634
159	0xbfa02fa434736809	-0.031613475229917816
160	0x3fc3ed5961752945	0.1556808210246549
161	0x3fa5dd23945ea209	0.04270278154519153
162	0x3fbf60a6de81231f	0.1225685399268852
163	0x3fc637ef5702676c	0.17358199833398247
164	0x3fa4070cd587085c	0.03911628824745669
165	0xbfbe6ae1319adc98	-0.11881835423524689
166	0xbf853c383731050d	-0.010368766006765751
167	0xbfca264b5b4e2ac0	-0.20429365118282838
168	0x3fc5b907c5500962	0.16970917829901128
169	0x3f833c37d6a8692d	0.009392200697267395
170	0x3fcb5ad5ae705f40	0.2137095548393919
171	0x3fadd53bb47cce93	0.058267465383690674
172	0xbfb5d9e174ba681a	-0.08535584544952748
173	0x3fa31c622b496407	0.037325923713702074
174	0x3fb48b869d8bc53a	0.08025399538361891
175	0xbfa7fc6e8331bc7c	-0.04684777595036224
176	0xbfa40192ee1cb374	-0.03907450825349815
177	0xbfb35c254bf6f696	-0.07562478165251671
178	0xbfab72776a56c6e0	-0.053607684832412295
179	0x3fc7df12f8e169f1	0.18649518158311154
180	0xbfbec690ced45e38	-0.12021737145948286
181	0xbf7fa92be069b955	-0.007729693787594212
182	0xbfb83c17b74dceab	-0.09466694092935295
183	0xbfc08b2547a96717	-0.12924638747318148
184	0xbfce82fdc67dd3df	-0.23837253753632034
185	0xbfc1a4d96c9110da	-0.13784330178362475
186	0x3fb1e80ea7fd683d	0.06994716264071683
187	0xbf9af49dc794871b	-0.026323762232215758
188	0x3fc80b92c9570d04	0.18785319167191272
189	0xbfa96a76068a6117	-0.04964035825577378
190	0x3fc7a5b196699c3c	0.18474407047617258
191	0x3fc7a2c88c417312	0.18465525482579231
192	0xbfb0f8e591f33290	-0.06629786313278374
193	0xbfbd2b27bdba65a0	-0.11393974668535245
194	0x3fb4a6fdef0f8227	0.08067309462013182
195	0x3fa81de3c3a70088	0.047103040345519764
196	0x3fc5567b1ec17f2e	0.166701688783172
197	0xbfb57cc3ead98e31	-0.08393501742971733
198	0x3fc5b60b000a10e0	0.16961801053924486
199	0x3f78f69489f75f4a	0.006094532232473979
200	0xbfbb60440ab248e4	-0.10693764935630018
201	0xbf828dbd2ea2dfaa	-0.009059408174252177
202	0xbfc9acf82f76f05f	-0.2005911094437378
203	0x3fa7fb3016509694	0.04683828613660271
204	0x3fb62b5044533548	0.08659841220943065
205	0x3fb15ce9cd9bd511	0.06782399434799326
206	0x3fbd21044b1d962c	0.11378504594684874
207	0x3f6eeb981501625e	0.00377444938207487
208	0xbfb21d126865a6b0	-0.07075610207325655
209	0x3fba16cd33ad8d14	0.10191042434376058
210	0xbfca044728a30a62	-0.20325555309507864
211	0x3fcbb6571595a4e0	0.21650208047802888
212	0xbfa08225f146e3ea	-0.032242952063320576
213	0xbfb244162ab93777	-0.07135141890577566
214	0xbfb823add1005e89	-0.09429441788267402
215	0xbfcd532c07678fe3	-0.22910070764112253
216	0x3fc3f51de4e544b7	0.1559178702978323
217	0x3fcbcc10e37ffea3	0.217165099224066
218	0xbf9dd0e5f3258e4e	-0.02911719605016421
219	0xbfc64681bc81e2d2	-0.17402669624768535
220	0xbfcbe92286fe91b3	-0.2180522116806408
221	0xbfc053805c34c18c	-0.12754826071023861
222	0x3fbaa601990ca366	0.1040955542236027
223	0x3fc2fc7388194d29	0.1483292021317564
224	0xbfc047a6c4a15b45	-0.12718662835205854
225	0xbfc9bf5b8fe7c4cc	-0.20115227247837308
226	0xbfccb336d4e6e681	-0.22421918292620904
227	0x3fce41e08d1d4917	0.2363854111704959
228	0xbfcaf732ab7c374b	-0.21066888211538023
229	0xbf92ba013e67739e	-0.018287677224964598
230	0xbf7024c7319274c3	-0.003941324329528931
231	0xbf881d2033c782d7	-0.011774303035907803
232	0xbfc89c815f2fb5b6	-0.19227616451045798
233	0xbfb2b09fa1d4a9f3	-0.07300756169266957
234	0x3fce467f3bf04e58	0.23652639795965302
235	0x3fc484d5c3d80caf	0.16030380308811717
236	0xbfa902941ea2c961	-0.048847798099262325
237	0x3fc3f9bc527cd1b7	0.1560588267108309
238	0x3fc311f154383451	0.14898506748469
239	0x3fc81b2e2ef9f52e	0.18832948011178402
240	0x3f85eb8ee3dd24c9	0.010703197792866341
241	0x3fbea8fa7b6218cf	0.11976590645108164
242	0xbfbf7221f8a1f4d1	-0.12283527679570062
243	0x3fcb76d24901d999	0.21456364216619475
244	0xbfce923399e8b233	-0.23883671774946577
245	0x3fc2ab75c67d21dc	0.1458575457748016
246	0xbf9f2f436ff6449e	-0.030453733166329593
247	0xbfc826d75e68866f	-0.18868534192829453
248	0x3fc027e3aa52d12b	0.12621732536866523
249	0xbfc0cbc34dff7069	-0.13121835049139755
250	0xbfc31afb82e1150f	-0.14926093950831684
251	0x3fc2497974215dee	0.14286726160456403
252	0xbfba84ff0bf84c32	-0.10359186212763019
253	0xbfbdf98605e962a4	-0.11708867687537833
254	0x3fc9f58932dd289b	0.202805661998643
255	0xbfa4398c7c888cd1	-0.039501562311011214

bias f8 [50]
0	0x3fba4e37b97d260a	0.1027560069898287
1	0xbf9e08c6f293cfd3	-0.029330357127903838
2	0x3f56082549d42bcf	0.0013447155136556593
3	0x3fc1a731c1e5c4f0	0.13791486709263934
4	0x3fb18b3c916a122f	0.06853083181528839
5	0x3fc153507997c4c6	0.13535505234862039
6	0x3f9c92d234982852	0.027903828106026936
7	0xbfb81c5de070e113	-0.09418284158244132
8	0xbf91245adfe9d7b6	-0.016740245739547986
9	0xbfb734383a1fe2e4	-0.09064055842453517
10	0xbfbd97f6b0aa939b	-0.11560003102438403
11	0xbfbfeb6fc90785fa	-0.12468622835105939
12	0xbf929d5e857d1a65	-0.0181784409499194
13	0xbf67dce0950cd7a9	-0.0029129396793008033
14	0x3fb06c3fe262ca9e	0.06415175702094664
15	0xbfb24f3fec64e957	-0.07152175446836871
16	0x3fb812487654a6c2	0.09402897728855478
17	0xbfaf9dedf380aae6	-0.061751781439246575
18	0xbfba8995bfb1272e	-0.10366187982540673
19	0xbfc076c38028c1c1	-0.12862437970899346
20	0x3fa6ef6fe5e08ff5	0.04479551011198161
21	0x3fb0ce9158880f22	0.06565197383320912
22	0x3f813695092123f3	0.008404888478382921
23	0x3f3ef3825a06ac65	0.0004722779504173268
24	0xbfb3ede6c405e75c	-0.07784883771628642
25	0xbfb464e9726f9a16	-0.07966479343267738
26	0xbfb6c66b89ded77d	-0.08896515003183754
27	0xbfbb6734e1af270f	-0.10704355726116098
28	0x3f8d5f373fb3c971	0.014341766006030739
29	0x3fab59e92c502a97	0.053420340213127186
30	0xbfc2606a57fd17d6	-0.14356736465759806
31	0xbf7e0088f21c299b	-0.00732472891264493
32	0x3f8249e1bf598c13	0.008929980899841572
33	0xbfa79b3585a53d47	-0.046106026233810264
34	0x3fb75ba0ac1c4246	0.09124187662042357
35	0x3fbbdbc1f61c44fe	0.10882198580317845
36	0x3fbe9babea1a753d	0.11956285920537808
37	0xbf9fde8c3038665b	-0.031122389262327448
38	0xbfaba8a9afac0141	-0.05402117032463361
39	0x3fb63375bb1fcbbb	0.08672271555387472
40	0x3f7a76759e2b892e	0.006460627979978191
41	0x3fc012a4edb6535e	0.12556897742310985
42	0x3fab8171fe6887cb	0.053721964173987745
43	0x3fbb9b5413d20318	0.10783887370963574
44	0xbfbe761e478e579f	-0.1189898419091535
45	0x3fa7aec9843a4d23	0.04625539530857228
46	0xbfbb44c79e69e558	-0.10651824586411374
47	0xbf662b1d58dc59dc	-0.0027061055360590846
48	0xbf8e0bf1b5e4f334	-0.014671219218706712
49	0x3fad5416a30682c7	0.05728216877037578

weight f8 [50, 50]
0	0xbfaaf9c220980da4	-0.05268675468326059
1	0x3fc34e804e268561	0.15083316627446222
2	0xbfba0184c0dd5fb7	-0.10158567150699481
3	0xbfc291e89744400f	-0.1450777758223016
4	0x3fbf42e2aae56766	0.12211434051769529
5	0x3fb01cd5f99d75e8	0.06294000000112698
6	0x3fc6995cf7fcfbf7	0.17655527218627728
7	0x3fc98ab18581d353	0.19954508799460288
8	0x3fc480ffd5c9017a	0.160186747920317
9	0xbfbd387ed854cc97	-0.11414330274128513
10	0xbfc566191a02f7f3	-0.167178285313582
11	0xbfc15718bb71e2a1	-0.13547047760564104
12	0xbf8b540f4811bc83	-0.013343924891357389
13	0xbf9257080a770a12	-0.017910123480541947
14	0x3fcb9e19a7ed0d34	0.21576233577261805
15	0x3f60024b44d5f736	0.0019542188735489864
16	0xbfcf4f4f5dd48241	-0.2446078498988005
17	0xbfbb3ee6dd6baa00	-0.10642855554366548
18	0xbfaaef532a6151d1	-0.052607153819426274
19	0x3fc7738861cb3879	0.1832132794865549
20	0x3fca87391debe03d	0.20725168190961255
21	0x3fc8ec3fd32ba5e6	0.19470975695666864
22	0xbfc477d201b13278	-0.15990662653566168
23	0xbfb4421a56330fc0	-0.0791336498687647
24	0x3f9131c04cac96e4	0.016791348151989363
25	0xbfc2cc22cba55f1a	-0.14685473388339504
26	0x3fa40746cf8c04b1	0.03911801608593047
27	0xbf6ef4d437134857	-0.003778852923098912
28	0x3fcb076f1c8fcb99	0.21116436857809331
29	0xbfa5495781615bc1	-0.041575178664678976
30	0x3fc0f0d1c9004eba	0.13234922708999425
31	0xbfcdb4954ffb912b	-0.23207346349148258
32	0xbfcc68d8f687c559	-0.22194969213118546
33	0x3fbcfdd42a3dc6d2	0.11324811965257744
34	0xbfcd121e99925a64	-0.2271154641973282
35	0xbf92b060cc29886a	-0.018250954114030916
36	0x3fbc7bb6d620b632	0.11126272895554548
37	0x3fa6eb8fa15aa33c	0.04476593823102923
38	0x3fb68a3940dbd6f8	0.08804662545648145
39	0x3fba1bb2b3d17cc2	0.10198513879867036
40	0xbfc9d8959f15cea6	-0.20192213313895485
41	0xbfc46f85b8051f8c	-0.15965339169838122
42	0x3f9ebdfd0e1a874c	0.030021623597924305
43	0x3fa62581f83258a1	0.04325491099113888
44	0xbfca052ce0091ec4	-0.2032829374240831
45	0x3f537540ba4ec3e6	0.0011876232249330375
46	0xbfbb36a9834eb8c5	-0.10630282836675338
47	0xbfcd76b9ce20a44f	-0.23018572392291722
48	0x3fc385cf402cd6fa	0.15252104409744743
49	0xbfcbb58c30ced025	-0.21647789366909467
50	0x3fbd0aa796ccccf2	0.11344382697716407
51	0x3fce43160cf76beb	0.23642230637673775
52	0x3fa728761d901097	0.04523057089684917
53	0xbfcb766924932392	-0.21455110822560336
54	0xbfcdc6d0c644df3f	-0.232629868327189
55	0x3fc7c96f832aa228	0.18583482651344352
56	0x3fc66fc4c2f88545	0.175285906982973
57	0xbfa7b91b167798cb	-0.04633412026650915
58	0xbfccffbcc6f41168	-0.22655448641320253
59	0xbfc8c80763534cd6	-0.19360439634201637
60	0x3f86e58998026e2e	0.011179995490514374
61	0xbfc5e0096f3c85ff	-0.1708995621821003
62	0x3fbfa8e74edf027e	0.12367101359905949
63	0xbfbae407577d720d	-0.10504194150912145
64	0xbfc3f32dec815646	-0.15585874603373123
65	0x3fc625f2f87f5c79	0.17303311475436425
66	0xbfc21b94614124a7	-0.14146666287186813
67	0xbfb181962f8cbc5a	-0.06838358555681748
68	0x3fa21414da3a21ce	0.03530945934204831
69	0x3f6256f21e512f4e	0.0022387246013177214
70	0xbfcac0ce3925eacf	-0.20900895872531186
71	0xbfcdd35711592447	-0.23301208827095563
72	0xbfc7c90a429c46ff	-0.18582275631393227
73	0x3fa5b152f1be9f89	0.04236849976524499
74	0xbf8d602b7bce8543	-0.014343585696965483
75	0x3fb3ffa0d1f44598	0.07811932683787004
76	0x3f7e9dffd870d9c1	0.007474898716330392
77	0xbfcb5379b3a5dd1b	-0.21348496696348537
78	0xbfb769cdc144598b	-0.09145818680221944
79	0x3f9fff350f863d55	0.03124697596791511
80	0x3fa636d03c2132b6	0.043386943187760194
81	0x3fbaed0917045993	0.10517937480867649
82	0xbfc95dd8dc254c82	-0.1981764864854974
83	0x3fbcd39f4ae68357	0.11260409906982481
84	0x3f865a36db211f41	0.010914257585809774
85	0xbfc8ba22177bc4f0	-0.19318033358243936
86	0x3fc7a2ed6b08eb35	0.18465965009985444
87	0x3f4582d2308d0c09	0.0006564642254506269
88	0xbfc2865159572ffb	-0.14472405302365118
89	0xbfca01fac3f9821d	-0.2031854111583166
90	0xbfcc5e40bc402f5e	-0.22162636939935515
91	0x3fc7d981a041a430	0.18632526707668395
92	0xbfc51771bfa6eac4	-0.16477796419152047
93	0xbf93466d4243fdca	-0.018823344392328946
94	0xbf94b8179f3f3f2d	-0.020233506292981197
95	0xbfc20dde92965f33	-0.14104826123797806
96	0xbfc82d67865d072c	-0.1888856321402782
97	0x3f827c8922e459b7	0.009026595475501204
98	0xbfc9e12030dceba5	-0.20218279252898444
99	0x3fc0ee158f09555a	0.13226575359537202
100	0xbfc2390fa31f62a9	-0.1423663660523478
101	0x3fcba18cad3e5393	0.215867600051436
102	0xbfd552c2c85a1be9	-0.33317632260917535
103	0xbfbb6c98ba645bf5	-0.10712580252253175
104	0x3fc5faa4c5012db0	0.17171153659215355
105	0xbfb0976b19332c01	-0.06481046071273512
106	0xbfc23ccddaa676a0	-0.14248059440881367
107	0x3fbd8e106a08001c	0.11544897640851598
108	0xbfc10bb5ed467ff4	-0.1331698807307472
109	0xbfa4c4bd10a4ebbb	-0.04056349590469873
110	0x3fa06e3dc6dca1bb	0.03209107449066858
111	0x3fc7d6af7803fb0c	0.18623917923101663
112	0xbfb3fb41053fcdf9	-0.07805258157878105
113	0xbfb5bacc20d2d5a7	-0.08488155175549271
114	0x3fc914ee4f4eb82e	0.19595126030384463
115	0xbfcb91eb1fd7c2fc	-0.2153905778391375
116	0x3f75a0c81c57b867	0.005280286486124642
117	0x3fbd9a3d6a011763	0.11563476407999711
118	0xbf6e6467996de605	-0.003709986059615702
119	0xbfc98a82a92aba5a	-0.19953950176337082
120	0x3fb6af82340e4b3e	0.08861554880995201
121	0x3fc94e149a63c875	0.19769532717288354
122	0xbfc6a7976ea8c9cd	-0.17698948767936287
123	0x3faaf4256f424a4e	0.052643937903799384
124	0xbf813537d40353c7	-0.008402286679862215
125	0xbfaf91bb9f17bb0a	-0.06165872876214536
126	0xbfb2474a806a5cea	-0.0714003146662098
127	0xbfc259922e5b2a72	-0.14335849059564826
128	0x3fc245d50245e323	0.14275610552774606
129	0xbfb5bcb6460cb637	-0.08491076669880547
130	0xbfc30d61694a5718	-0.14884584084637065
131	0xbf9ca2ec1e8f60c4	-0.027965249409903206
132	0x3fc51947e6f4d073	0.16483401086009372
133	0xbfc86dca886d43cd	-0.19085055982080093
134	0xbfc830f8a860aa8e	-0.1889944860607397
135	0xbf6e9ec59bce5d12	-0.0037378177207291275
136	0xbf61e90e66182359	-0.0021863251902271394
137	0x3fadad71548f89f6	0.05796388776049703
138	0xbfc25664bf6f8453	-0.143261521791859
139	0x3f96bd319d8e03f8	0.022206092110994974
140	0x3fb5904c78a03cb6	0.08423307366341501
141	0x3fc0d0558f9398d6	0.1313578558976533
142	0x3fb48a0b7c01c036	0.08023139741430971
143	0xbfb32f01a8366ca4	-0.07493601185562909
144	0xbf9c179fa98387b7	-0.02743386718874038
145	0x3fc2a98ae0bd0750	0.14579902623705232
146	0x3fc8da108a4706f7	0.1941548037703382
147	0x3fa4c4d77ff629c5	0.04056428372412627
148	0xbfa28e0151d1e02e	-0.036239663350841375
149	0x3fca4a59e6b0a75b	0.20539401783144737
150	0x3fa778da68465ca9	0.0458439113892209
151	0xbf830148b9c0f19f	-0.0092797929465796
152	0x3fab13e5636a982e	0.05288616980151094
153	0x3fb7ee2c3a339a8d	0.09347797795235575
154	0xbfa7353098c251f4	-0.04532768120512634
155	0xbfc987f4f8c61cd9	-0.19946157595788952
156	0x3f91d6e7b56a334a	0.017421360442813318
157	0xbf77fd21c57d169c	-0.005856639785468378
158	0xbfc6c719b2b9ac66	-0.17795106150456091
159	0xbfc8cbc484808bf3	-0.19371849508124192
160	0x3f81e0584ddaf9f8	0.008728685260732214
161	0xbfc96b6020d773db	-0.198589340244239
162	0xbf99fdd5c04a00a3	-0.025382366048234527
163	0xbfc83ea5ee5d842d	-0.18941187037401744
164	0x3f8c33afc23e4335	0.013770459285099438
165	0xbfbd3d16ede1a45f	-0.11421340282108038
166	0xbfa4e5573aba5963	-0.040812230986534435
167	0xbfc58bb7e325791d	-0.16832636443263818
168	0x3fc9b1006358a3cb	0.20071415758982733
169	0x3fbb443ec94d2c92	0.10651009001337489
170	0x3fb851cd2c0b4df9	0.09499819112107123
171	0x3fa862f705a03d0f	0.04763004249263691
172	0xbfa3335e96fab28d	-0.037501293115700475
173	0xbfcdeecf26615fec	-0.23385037778893947
174	0xbfc28f852ff662a1	-0.14500489084163795
175	0xbfb12f486b0e94e3	-0.06712772954650208
176	0xbfc78192189f6e61	-0.18364168360027391
177	0xbfc853737edecf34	-0.19004672713128345
178	0xbfcc60e7ef909e9e	-0.22170733640199541
179	0x3fc40b3bc202ba45	0.15659281705070974
180	0x3fb0e14c5a46b81e	0.0659377785111421
181	0xbfb5316c8813d103	-0.08278539964868874
182	0x3fb4ca3de496d63b	0.08121096449652836
183	0xbfb6e972092a3b97	-0.08949959491495317
184	0xbfca2c82fe823141	-0.20448338915992717
185	0x3fc5f45bda5713ea	0.17151973878040333
186	0xbfa9a823ac050b1e	-0.05011092638826241
187	0x3f9fbf18a3d2b241	0.03100241184135855
188	0x3fb16e8ed845a2b4	0.0680932310111853
189	0xbfb0a3636a4af931	-0.0649931082252564
190	0x3fb94ef2fde0c879	0.09886091898150252
191	0x3fc97f1fdb4dc363	0.19919203003112348
192	0xbfb441190550d186	-0.07911831264283906
193	0xbf9bc5ed526a20f6	-0.027122219233690147
194	0xbfb52397900cb391	-0.08257434145771315
195	0xbfb595495a5b77af	-0.08430918174732825
196	0xbfb1d58f1b27bb27	-0.06966490185707795
197	0xbfaa46a9485a98de	-0.051320352632773
198	0x3fc19afa8a96922d	0.1375420738887824
199	0xbfb507854ab29354	-0.08214600633307373
200	0xbfd05be7835102a0	-0.2556093962084933
201	0x3fb587f2bafcda26	0.08410565438394055
202	0xbfb8df6769819fe2	-0.09715887380445978
203	0xbfc9704c11a9916d	-0.19873953688069027
204	0xbfc6442e0b1730c7	-0.17395568410427684
205	0xbfcdc0bba5f63dd0	-0.232444244419169
206	0x3fc25e32489b854b	0.1434996466187307
207	0xbfbbce76047f1dd1	-0.10861909494189283
208	0xbfcd9a819cd042fa	-0.23127765805158856
209	0xbfade4590d38c414	-0.058382780899030845
210	0x3fcb46ed2a6e55c7	0.21310200282884592
211	0x3f902c4322ad9a38	0.01579384707602058
212	0xbfcdcf98d75208d9	-0.2328978587502835
213	0xbf9e990a42a3d7b3	-0.029880676572211672
214	0xbfcada00d9a2781e	-0.2097779333752791
215	0x3fc214fcbbf8f5e1	0.14126547983498397
216	0x3fc96a4f68708027	0.19855682944853578
217	0xbfc02a6b4e9bc8e3	-0.1262945302801831
218	0x3fcb43240dbc2b9d	0.21298647566467546
219	0x3fc6f9fc359a8c0d	0.1795039426552595
220	0xbfc0bd63edc94ed5	-0.13077973471319262
221	0xbf9f5ca1559fbb31	-0.03062679371935956
222	0xbfc4ab56b6ec7926	-0.16147884303877297
223	0x3fcdbbd82b962faa	0.2322950566125404
224	0xbfc31daafc156447	-0.14934289273040433
225	0x3fc616cb21826804	0.172570601808559
226	0xbfc30f43a304bd36	-0.14890332660568512
227	0x3fc4eb63f5cddf70	0.16343354704053636
228	0x3fc8177c36c2dda5	0.18821671174894763
229	0xbfae1e8692593fca	-0.058826642384360264
230	0x3fb0c94554c031dc	0.06557114905462619
231	0xbfb2978ca5b3304f	-0.07262496037873344
232	0xbfb329511ff74a1a	-0.07484919577044771
233	0x3fc12ddd29a48307	0.13421215565997377
234	0xbfcab1c314aa479a	-0.2085498667625501
235	0xbfce0c2c1479c0f1	-0.23474646568093463
236	0x3fbeafe59bf69bea	0.11987147386263045
237	0x3fa69555966e41a2	0.044108080494996274
238	0xbfcb06ca96f0ff1b	-0.21114475603280244
239	0xbfbd7f7e3672992f	-0.11522663907326057
240	0xbfc30ef4cc1c6327	-0.14889392820693922
241	0x3fc2195708dbdce4	0.14139831478653442
242	0xbfca5ec5efd7ee8d	-0.2060172482596169
243	0x3fc92eeafdd79d56	0.19674432177201123
244	0x3fc55825b6f1ea03	0.16675254280910687
245	0xbfbdd2e345045d10	-0.11649914202677203
246	0x3fc2ff85f6d8383e	0.14842295220336327
247	0xbfbea67377e08c0a	-0.1197273414295951
248	0xbfcd043f94d580fe	-0.2266921498039735
249	0xbf9ea5e608baae35	-0.029929727824010228
250	0xbfc6571d5b161ae2	-0.1745335287816579
251	0x3fc5b3bc91a30a10	0.16954762564826398
252	0x3fd3ed3295f7dda6	0.3113523926289993
253	0xbfb5c1354e5aed6a	-0.08497937357872379
254	0x3fce0bfc783b47bd	0.23474079008752638
255	0x3fc03affc0f192e7	0.12680050774647286

bias f8 [50]
0	0x3fc05330f69da5bc	0.12753879586970907
1	0xbfc048f01debbdc3	-0.12722588978748037
2	0xbfac6c60e8809b6d	-0.055514362699162635
3	0x3fbd4b6194f66c25	0.11443147551328588
4	0xbfa2f5fa6b414bc1	-0.03703291472688575
5	0xbfa3e14bc22e00f5	-0.03882824654920284
6	0x3f7f047c6229bb36	0.007572637436722476
7	0x3faff0b0cf2f2401	0.062383199015648934
8	0x3f9569779dfa7129	0.02091013814661938
9	0x3fb75d84541264cc	0.09127070477042593
10	0xbf9957b1d5c54c07	-0.0247485911107326
11	0x3faa751507b79b27	0.051674515907328016
12	0x3fb2af3f0dc0366c	0.07298654638017305
13	0xbfbcd0dc640c37fe	-0.11256196444102781
14	0x3fbb20229aff7cb4	0.10595909389620567
15	0xbfa2874a4f23798f	-0.03618843284651795
16	0xbfb6bfa930cdb48f	-0.08886201325886332
17	0xbfbaa3c429484243	-0.1040613747393389
18	0xbfa8b23ed420a93f	-0.04823490466545132
19	0xbfab52fe170358ef	-0.053367557820523596
20	0x3fbee82246a2f287	0.12072958206676719
21	0xbfb2bb5609acc863	-0.07317102180675898
22	0xbfbe6e193dc8664e	-0.11886747129792605
23	0x3f847e3c658a010b	0.010006400917746313
24	0xbf90b0a7104fc00a	-0.016298876162125032
25	0xbfa77b893ac915a2	-0.045864380289042175
26	0x3fbb5f0e989de36c	0.10691920495982082
27	0x3fb852982594bcbf	0.09501028935914045
28	0x3fb5e9d5ede5f343	0.08559929903090073
29	0x3fb49cf6b114a463	0.08052007506616259
30	0xbf966b38af467777	-0.021893392274811654
31	0x3f73f11b8fd034c7	0.004868610060850992
32	0xbfb78e9e11964542	-0.09201991967554071
33	0xbf9ff3f7657f56ff	-0.031204095430289232
34	0x3faf8d7cbb77d39d	0.06162633694103834
35	0xbfa44df5e7625273	-0.03965729188454228
36	0xbfb46b38c19d071c	-0.07976107336892507
37	0x3fbc954053b08a14	0.11165239375308317
38	0x3fb208643293ad6f	0.0704405425528216
39	0xbfc02fbf8f4cfc51	-0.1264571618757793
40	0x3f99735fa16b7416	0.024854177691725786
41	0x3fa31d4df643a248	0.037332950889155614
42	0xbfa381790860cf1b	-0.038097173950886375
43	0xbf9fa65afc00e05c	-0.030908033019131018
44	0x3fb4ade4e5238b7f	0.08077841371736659
45	0xbf90b3d00cab6a56	-0.01631093098954247
46	0x3fbecd172f686cb6	0.12031693370265625
47	0xbfc06d1e7eeb163c	-0.12833005139525422
48	0xbf9529b7af90530a	-0.020666952219545322
49	0x3f839747caa30c71	0.009565888282287301
